best_model.pth (torch, 436277 bytes, 38 tensors)

token_embedding.weight f4 [9, 64]
0	0xac0e300f	-2.0206092e-12
1	0xac0099e4	-1.827532e-12
2	0x2d26d96c	9.484285e-12
3	0x2db0cfad	2.010111e-11
4	0xac235324	-2.3209846e-12
5	0xad045f7f	-7.524536e-12
6	0x2c2d611e	2.463869e-12
7	0xace85a53	-6.6038646e-12
8	0xad5664ca	-1.2186871e-11
9	0x2ce775b4	6.5784826e-12
10	0xadcc761b	-2.3244564e-11
11	0x2cad37f1	4.9231665e-12
12	0x2d949021	1.6889658e-11
13	0xadc984e2	-2.2910066e-11
14	0x2c013e16	1.8366467e-12
15	0x2bd59a74	1.517743e-12
16	0x2caf451e	4.9814727e-12
17	0x2c14f58a	2.1168367e-12
18	0x2caa917e	4.8478435e-12
19	0x2b1647cc	5.3390343e-13
20	0x2c997256	4.3612154e-12
21	0x2e7f0961	5.7988617e-11
22	0x2bdb4faa	1.5582997e-12
23	0xadcab3a7	-2.3044523e-11
24	0xac16ece9	-2.1447794e-12
25	0xad56b5ec	-1.2204886e-11
26	0x2d09e64d	7.838685e-12
27	0x2c17faa6	2.1597528e-12
28	0x2c922ca6	4.1545265e-12
29	0xadf2b8fc	-2.7594364e-11
30	0x2c0a19d0	1.9625308e-12
31	0x2daa5d2f	1.9368144e-11
32	0x2ace9606	3.669705e-13
33	0x2c634202	3.2295282e-12
34	0x2c1c6956	2.2227407e-12
35	0x2c0576e6	1.8966439e-12
36	0x2c36d8b8	2.5984059e-12
37	0xab386d2e	-6.552145e-13
38	0xadf88af4	-2.8256043e-11
39	0x2d60c794	1.2777241e-11
40	0x2d1e36e5	8.993449e-12
41	0xad159f82	-8.505087e-12
42	0xad869c23	-1.5303375e-11
43	0xad8264f8	-1.4824128e-11
44	0x2dda3815	2.4808636e-11
45	0xabdafa1a	-1.5559249e-12
46	0xad440056	-1.1141385e-11
47	0xacc70832	-5.65683e-12
48	0xad9974e3	-1.7445994e-11
49	0xacb51fda	-5.1478656e-12
50	0x2e5ea877	5.0626583e-11
51	0x2e16feb1	3.4332263e-11
52	0xacc59d46	-5.6165376e-12
53	0x2d07776c	7.7003785e-12
54	0x2c2eb2a4	2.4826053e-12
55	0xac565ff7	-3.04645e-12
56	0xad9a4547	-1.7538538e-11
57	0x2cf5f198	6.990141e-12
58	0xac3f6139	-2.7196702e-12
59	0xadb381d7	-2.0407604e-11
60	0x2b69a564	8.3007754e-13
61	0x2d9ba8b1	1.7696374e-11
62	0x2d9af419	1.7616174e-11
63	0xad2b659d	-9.742787e-12
64	0xbcf7ea2d	-0.03026303
65	0x3d3e5808	0.046470672
66	0x3d860d24	0.06545475
67	0xbbc58521	-0.006027833
68	0xbd59b34e	-0.053149514
69	0xbd257f8a	-0.040404834
70	0xbcbded40	-0.023184419
71	0xbd4bd19e	-0.049760453
72	0xbda2ea44	-0.07954839
73	0xbbd7963e	-0.0065791896
74	0x3ce472f3	0.027886843
75	0xbcb1010b	-0.021606943
76	0xbd5c4613	-0.053777765
77	0x3c854c22	0.016271655
78	0x3ced6059	0.028976606
79	0xbca047cd	-0.019565487
80	0xbbda69d8	-0.0066654496
81	0xbc70cbdf	-0.014697044
82	0x3bb48395	0.00550885
83	0xbd19e0de	-0.037567966
84	0xbcb75adf	-0.022382198
85	0xbd6e9085	-0.058243293
86	0xbd19cba4	-0.037547722
87	0xbd608b0b	-0.0548201
88	0xbb01c952	-0.0019803834
89	0xbcfd081b	-0.030887654
90	0xbdad25a1	-0.08454443
91	0x3d0a159f	0.033712026
92	0x3c2e2815	0.0106296735
93	0xbd8f4c81	-0.06997014
94	0x3d835716	0.06413095
95	0x3d39f5fa	0.045400597
96	0x3c6bcc15	0.014391919
97	0x3ce197a4	0.027538128
98	0xbb900010	-0.0043945387
99	0x3d0eb50b	0.034840625
100	0x3c7ac956	0.015306791
101	0xbc30b84d	-0.010786128
102	0xbcd7dedb	-0.026351383
103	0xbcb46c16	-0.022024196
104	0x3c1f68be	0.009729562
105	0xbd385941	-0.045006994
106	0x3cf24191	0.02957228
107	0x3cdb9161	0.02680272
108	0xbd09e8b8	-0.033669204
109	0xbdb56427	-0.08856993
110	0x3d51a3c4	0.05118157
111	0xbd8daaec	-0.069173664
112	0xbdb9999d	-0.090625025
113	0x3c5e2f83	0.013561132
114	0xbb6cd7f1	-0.0036139453
115	0xbd45158d	-0.048116256
116	0xbc0c03b8	-0.0085458085
117	0xbd6d0c0d	-0.05787282
118	0xbbc75074	-0.006082589
119	0xbc5b1799	-0.013372325
120	0x3d8957c9	0.06706197
121	0xb9ab0346	-0.000326181
122	0x3d1bb4e6	0.038014315
123	0xbcc375fa	-0.023859967
124	0x3a3ae21f	0.00071290316
125	0xbda6185b	-0.08110114
126	0x3ceaf2d6	0.028680246
127	0xbcd92538	-0.026507005
128	0x2b896f86	9.765389e-13
129	0x2c355ba9	2.5772529e-12
130	0xaca75ec9	-4.7569487e-12
131	0x2c9ddefc	4.4869646e-12
132	0xab3f7b12	-6.8027626e-13
133	0xad3232db	-1.0129421e-11
134	0x2db72e62	2.082529e-11
135	0xad773d4f	-1.4053938e-11
136	0x2d1012b8	8.189609e-12
137	0x2de98883	2.6549657e-11
138	0xad66f8d0	-1.3129234e-11
139	0x2db04acc	2.00421e-11
140	0x2def4bc4	2.7204801e-11
141	0x2e1558ef	3.3957667e-11
142	0x2c57c7c6	3.0664234e-12
143	0x2cb2788e	5.0724485e-12
144	0x2cb0a91e	5.0209966e-12
145	0xac24f7ce	-2.344336e-12
146	0xac10768d	-2.052944e-12
147	0xad8fd45c	-1.6351524e-11
148	0xad9a9944	-1.7575837e-11
149	0xac790f84	-3.5393641e-12
150	0xac7a7dd6	-3.559699e-12
151	0xad0010a6	-7.279654e-12
152	0xad08786a	-7.757442e-12
153	0xabae9e3c	-1.2407362e-12
154	0xad8750e0	-1.5383639e-11
155	0xaaac5bfa	-3.061716e-13
156	0xabd8a7a4	-1.5394253e-12
157	0x2ba95fa0	1.2034714e-12
158	0xad9909fb	-1.7398518e-11
159	0xad40f4a5	-1.0968258e-11
160	0x2d7b52ed	1.4286111e-11
161	0xab4ccd78	-7.2760504e-13
162	0x2d1bfe7c	8.867237e-12
163	0x2d8a4e19	1.5723466e-11
164	0x2c92870a	4.164562e-12
165	0x2d6f56e2	1.3604869e-11
166	0x2ce3708e	6.464224e-12
167	0xab805ece	-9.121261e-13
168	0xad35f8dc	-1.0343917e-11
169	0xad828328	-1.4837534e-11
170	0xaa6090d9	-1.9945451e-13
171	0x2d0d2282	8.022584e-12
172	0x2d0caab8	7.995986e-12
173	0xaa8ab5d8	-2.4639904e-13
174	0xab921c1a	-1.0381724e-12
175	0xad0cb43a	-7.998097e-12
176	0xad00936a	-7.30869e-12
177	0xabc731b6	-1.4153598e-12
178	0xacd55ad4	-6.063908e-12
179	0x2d9c8c51	1.779746e-11
180	0xad24d141	-9.368784e-12
181	0xad85de07	-1.521895e-11
182	0xadc01677	-2.183785e-11
183	0xad336569	-1.01974896e-11
184	0xadad718f	-1.9718253e-11
185	0x2cca90fd	5.7572822e-12
186	0x2af04e7d	4.2687026e-13
187	0xac019b22	-1.8418119e-12
188	0x2dba0ad2	2.1150557e-11
189	0x2dbbd0ea	2.1352215e-11
190	0xabc2c797	-1.3839926e-12
191	0x2d2952e4	9.624943e-12
192	0x3d397964	0.045281783
193	0x3d0fd71e	0.03511726
194	0x3c7280be	0.014801202
195	0x3cba18fd	0.022716993
196	0xbd1d8756	-0.038459145
197	0x3d8e246f	0.06940543
198	0xbcf4bb85	-0.029874573
199	0x3d1ed33f	0.03877568
200	0xbd72011d	-0.059083093
201	0xbbd976a1	-0.006636456
202	0xbcecad59	-0.028891252
203	0xbc370783	-0.0111712245
204	0x3db81e81	0.08990193
205	0xbc56e2ed	-0.013115627
206	0x3c2b8cf6	0.010470619
207	0x3d49b648	0.049246103
208	0xbb9149e4	-0.0044338573
209	0xbdf8c2c1	-0.12146521
210	0x3d8ab99d	0.06773684
211	0xbdf57a89	-0.11986262
212	0xbcab0573	-0.020876622
213	0x3d869224	0.06570843
214	0xbd94da87	-0.07268243
215	0x3d85b769	0.06529123
216	0xbe213ac8	-0.1574508
217	0x3db30325	0.08740834
218	0xbc9474d9	-0.018122124
219	0xbc451a30	-0.012030169
220	0xbdf43f04	-0.11926082
221	0xbc633b1c	-0.013869073
222	0x3da92c6b	0.08260425
223	0xbd34f235	-0.0441763
224	0x3b5904ad	0.003311436
225	0x3c523a84	0.012831334
226	0x3d06214c	0.032746598
227	0xbe23eab5	-0.16007502
228	0x3d8486e4	0.06471041
229	0x3db481c1	0.08813811
230	0xbd8841f6	-0.06653206
231	0x3daed19b	0.08536073
232	0xbcc02aef	-0.023457972
233	0xbe084aaf	-0.1330974
234	0x3bcca7e4	0.0062456
235	0xbe232be7	-0.15934716
236	0xbe0287a4	-0.12747055
237	0xbdfc7104	-0.123262435
238	0x3d69415e	0.056947105
239	0xbd90c5ff	-0.07069015
240	0xbd27562c	-0.040853664
241	0xbd1f6ee9	-0.03892413
242	0xbde03b2e	-0.10948788
243	0xbd85fd37	-0.065424375
244	0xbc22d6f4	-0.009938944
245	0xbd61faaf	-0.05517071
246	0xbdccdac8	-0.10002667
247	0xbdcf0b54	-0.101095825
248	0x3dd9e0d9	0.106385894
249	0xbbceb64a	-0.0063083516
250	0x3c7cb3e5	0.01542375
251	0x3d21ba6c	0.039484426
252	0xbdfdf561	-0.12400318
253	0xbd31dd4e	-0.043423943
254	0xbaf753bb	-0.0018869558
255	0xbcd3f4b0	-0.025873512

positional_encoding.pe f4 [1, 66, 64]
0	0x00000000	0.0
1	0x3f800000	1.0
2	0x00000000	0.0
3	0x3f800000	1.0
4	0x00000000	0.0
5	0x3f800000	1.0
6	0x00000000	0.0
7	0x3f800000	1.0
8	0x00000000	0.0
9	0x3f800000	1.0
10	0x00000000	0.0
11	0x3f800000	1.0
12	0x00000000	0.0
13	0x3f800000	1.0
14	0x00000000	0.0
15	0x3f800000	1.0
16	0x00000000	0.0
17	0x3f800000	1.0
18	0x00000000	0.0
19	0x3f800000	1.0
20	0x00000000	0.0
21	0x3f800000	1.0
22	0x00000000	0.0
23	0x3f800000	1.0
24	0x00000000	0.0
25	0x3f800000	1.0
26	0x00000000	0.0
27	0x3f800000	1.0
28	0x00000000	0.0
29	0x3f800000	1.0
30	0x00000000	0.0
31	0x3f800000	1.0
32	0x00000000	0.0
33	0x3f800000	1.0
34	0x00000000	0.0
35	0x3f800000	1.0
36	0x00000000	0.0
37	0x3f800000	1.0
38	0x00000000	0.0
39	0x3f800000	1.0
40	0x00000000	0.0
41	0x3f800000	1.0
42	0x00000000	0.0
43	0x3f800000	1.0
44	0x00000000	0.0
45	0x3f800000	1.0
46	0x00000000	0.0
47	0x3f800000	1.0
48	0x00000000	0.0
49	0x3f800000	1.0
50	0x00000000	0.0
51	0x3f800000	1.0
52	0x00000000	0.0
53	0x3f800000	1.0
54	0x00000000	0.0
55	0x3f800000	1.0
56	0x00000000	0.0
57	0x3f800000	1.0
58	0x00000000	0.0
59	0x3f800000	1.0
60	0x00000000	0.0
61	0x3f800000	1.0
62	0x00000000	0.0
63	0x3f800000	1.0
64	0x3f576aa4	0.84147096
65	0x3f0a5141	0.54030234
66	0x3f2e7ace	0.68156135
67	0x3f3b54b0	0.731761
68	0x3f087dba	0.53316844
69	0x3f58940e	0.84600914
70	0x3ed190f0	0.4093089
71	0x3f6992c7	0.9123959
72	0x3e9f393e	0.3109836
73	0x3f734e6b	0.9504153
74	0x3e708f25	0.23492105
75	0x3f78d5f1	0.9720145
76	0x3e35233a	0.17689219
77	0x3f7bf683	0.9842302
78	0x3e0825f3	0.13295726
79	0x3f7dba28	0.99112177
80	0x3dcc7576	0.099833414
81	0x3f7eb898	0.9950042
82	0x3d996f36	0.07491915
83	0x3f7f47d1	0.9971896
84	0x3d6636ae	0.05620449
85	0x3f7f9868	0.9984193
86	0x3d2cacfb	0.042157155
87	0x3f7fc5bd	0.999111
88	0x3d01815b	0.031617504
89	0x3f7fdf3c	0.99950004
90	0x3cc23ea5	0.023711512
91	0x3f7fed93	0.99971884
92	0x3c91ab43	0.01778186
93	0x3f7ff5a3	0.99984187
94	0x3c5a7a49	0.013334819
95	0x3f7ffa2c	0.99991107
96	0x3c23d657	0.009999833
97	0x3f7ffcb9	0.99995
98	0x3bf5b916	0.0074988706
99	0x3f7ffe28	0.99997187
100	0x3bb8445a	0.0056233825
101	0x3f7ffef7	0.9999842
102	0x3b8a2e5a	0.0042169513
103	0x3f7fff6b	0.9999911
104	0x3b4f3e1c	0.0031622713
105	0x3f7fffac	0.999995
106	0x3b1b6904	0.0023713717
107	0x3f7fffd1	0.9999972
108	0x3ae91520	0.0017782785
109	0x3f7fffe6	0.99999845
110	0x3aaec98b	0.0013335211
111	0x3f7ffff1	0.9999991
112	0x3a83126d	0.0009999998
113	0x3f7ffff8	0.9999995
114	0x3a449489	0.000749894
115	0x3f7ffffb	0.9999997
116	0x3a136a13	0.0005623411
117	0x3f7ffffe	0.9999999
118	0x39dd1722	0.0004216964
119	0x3f7fffff	0.99999994
120	0x39a5cb60	0.0003162278
121	0x3f7fffff	0.99999994
122	0x3978a80d	0.00023713727
123	0x3f800000	1.0
124	0x393a7753	0.00017782794
125	0x3f800000	1.0
126	0x390bd46d	0.00013335208
127	0x3f800000	1.0
128	0x3f68c7b7	0.9092974
129	0xbed51133	-0.41614684
130	0x3f7f5ad9	0.99748
131	0x3d914d53	0.070948265
132	0x3f66f20a	0.9021307
133	0x3edce8b2	0.43146282
134	0x3f3f3511	0.7469035
135	0x3f2a3903	0.6649324
136	0x3f17541b	0.5911271
137	0x3f4e7bec	0.8065784
138	0x3ee9d3b5	0.45669332
139	0x3f63be69	0.8896242
140	0x3eb247f6	0.34820527
141	0x3f6ffaa6	0.93741834
142	0x3e86f082	0.26355368
143	0x3f76f2f5	0.96464473
144	0x3e4b6ff8	0.19866931
145	0x3f7ae5a5	0.9800666
146	0x3e1900d3	0.1494172
147	0x3f7d204f	0.98877424
148	0x3de5d986	0.1122313
149	0x3f7e61f3	0.9936821
150	0x3dac85af	0.084239356
151	0x3f7f170e	0.99644554
152	0x3d8170c8	0.063203394
153	0x3f7f7cf9	0.9980007
154	0x3d4230aa	0.04740969
155	0x3f7fb64f	0.99887556
156	0x3d11a55d	0.035558093
157	0x3f7fd68e	0.9993676
158	0x3cda7550	0.026667267
159	0x3f7fe8b1	0.99964434
160	0x3ca3d43e	0.019998666
161	0x3f7ff2e5	0.9998
162	0x3c75b751	0.014997319
163	0x3f7ff8a1	0.9998875
164	0x3c38439b	0.011246587
165	0x3f7ffbdb	0.99993676
166	0x3c0a2e0a	0.008433828
167	0x3f7ffdab	0.9999644
168	0x3bcf3dd8	0.006324511
169	0x3f7ffeb1	0.99998003
170	0x3b9b68e8	0.0047427304
171	0x3f7fff43	0.99998873
172	0x3b691508	0.0035565514
173	0x3f7fff96	0.9999937
174	0x3b2ec980	0.0026670396
175	0x3f7fffc4	0.9999964
176	0x3b031268	0.0019999985
177	0x3f7fffdf	0.99999803
178	0x3ac49485	0.0014997876
179	0x3f7fffed	0.99999887
180	0x3a936a12	0.0011246821
181	0x3f7ffff5	0.99999934
182	0x3a5d1720	0.0008433927
183	0x3f7ffffa	0.99999964
184	0x3a25cb5f	0.0006324555
185	0x3f7ffffd	0.9999998
186	0x39f8a80c	0.0004742745
187	0x3f7ffffe	0.9999999
188	0x39ba7753	0.00035565588
189	0x3f7fffff	0.99999994
190	0x398bd46d	0.00026670416
191	0x3f800000	1.0
192	0x3e1081c3	0.14112
193	0xbf7d7026	-0.9899925
194	0x3f473cde	0.7782725
195	0xbf20bfce	-0.6279267
196	0x3f7e45d7	0.9932532
197	0xbded7fab	-0.11596616
198	0x3f742164	0.9536345
199	0x3e9a1863	0.3009673
200	0x3f5009c2	0.8126489
201	0x3f152f58	0.58275366
202	0x3f2724b7	0.652904
203	0x3f41e7a2	0.7574407
204	0x3f022f6c	0.5085361
205	0x3f5c6d29	0.86104065
206	0x3ec768a7	0.3894703
207	0x3f6bc937	0.92103904
208	0x3e974e6c	0.2955202
209	0x3f7490ef	0.9553365
210	0x3e646de2	0.22307542
211	0x3f798c92	0.9748012
212	0x3e2beed7	0.16790329
213	0x3f7c5d9e	0.9858035
214	0x3e01332c	0.12617177
215	0x3f7df443	0.9920084
216	0x3dc1ffc0	0.094726086
217	0x3f7ed94f	0.99550337
218	0x3d919306	0.071081206
219	0x3f7f5a3a	0.9974705
220	0x3d5a694f	0.053323086
221	0x3f7fa2c3	0.9985773
222	0x3d23d1c5	0.039994974
223	0x3f7fcb90	0.99919987
224	0x3cf5b91f	0.0299955
225	0x3f7fe283	0.99955004
226	0x3cb84747	0.022494925
227	0x3f7fef6b	0.999747
228	0x3c8a31c6	0.016869437
229	0x3f7ff6ad	0.9998577
230	0x3c4f4446	0.012650555
231	0x3f7ffac2	0.99992
232	0x3c1b6e0d	0.009486687
233	0x3f7ffd0d	0.999955
234	0x3be91d14	0.007114062
235	0x3f7ffe58	0.9999747
236	0x3baecfa8	0.005334813
237	0x3f7fff11	0.99998575
238	0x3b831713	0.0040005534
239	0x3f7fff7a	0.999992
240	0x3b449b92	0.0029999954
241	0x3f7fffb5	0.9999955
242	0x3b136f60	0.0022496805
243	0x3f7fffd6	0.9999975
244	0x3add1f17	0.0016870227
245	0x3f7fffe8	0.99999857
246	0x3aa5d157	0.0012650889
247	0x3f7ffff3	0.9999992
248	0x3a78b10e	0.00094868324
249	0x3f7ffff9	0.9999996
250	0x3a3a7e09	0.00071141176
251	0x3f7ffffc	0.99999976
252	0x3a0bd97e	0.0005334838
253	0x3f7ffffe	0.9999999
254	0x39d1bea4	0.00040005625
255	0x3f7fffff	0.99999994

transformer_blocks.0.attention.w_q.weight f4 [64, 64]
0	0xbe35525d	-0.177072
1	0x3e080ba4	0.1328569
2	0xbdf0df56	-0.11761348
3	0xbe9072f9	-0.28212717
4	0x3d947e63	0.07250669
5	0x3d87c8fa	0.0663013
6	0xbd67ade5	-0.056562323
7	0xbdb617f5	-0.08891288
8	0x3d8416d8	0.064496696
9	0x3dd2468b	0.10267361
10	0xbe0a6876	-0.13516411
11	0xbde2d767	-0.11076241
12	0xbc19c737	-0.009385875
13	0xbe01ff9b	-0.12695162
14	0x3dc68911	0.09694112
15	0x3daebdb0	0.08532274
16	0xbc8b5aa6	-0.017010998
17	0x3c604a44	0.013689581
18	0xbe3c270e	-0.18374273
19	0x3e204480	0.1565113
20	0x3d7d5f2a	0.061858334
21	0x3df2d443	0.11856892
22	0xbe0f677e	-0.14004323
23	0x3dd0dae0	0.10197997
24	0xbe1585a4	-0.14601761
25	0xbe214564	-0.15749127
26	0xbdb8463f	-0.089977734
27	0x3de72ce4	0.11287859
28	0xbcf0dc6e	-0.029401984
29	0xbe2e27bd	-0.17007346
30	0xbd8eca3b	-0.06972166
31	0xbbb4068d	-0.005493945
32	0x3c80681f	0.015674649
33	0xbe1dd538	-0.15413368
34	0x3dcc41b7	0.099734716
35	0xbe171be7	-0.14756738
36	0xbcb0cf6c	-0.021583281
37	0xbe036cf6	-0.12834534
38	0x3d9b1494	0.07572284
39	0x3e2fea35	0.17179187
40	0x391f6291	0.0001520014
41	0xbc3adf7d	-0.011405823
42	0x3d9f6dbc	0.07784602
43	0xbe16e1aa	-0.14734522
44	0xbdabf964	-0.08397177
45	0x3d0f697c	0.035012707
46	0x3d994860	0.074845076
47	0x3db123f9	0.08649439
48	0xbc5930e6	-0.013256287
49	0xbdb448b0	-0.088029265
50	0x3dbfd7e8	0.09367353
51	0xbdc577e5	-0.09642009
52	0x3d81b621	0.063335665
53	0x3e0bd4cb	0.13655393
54	0xbb64e191	-0.0034924487
55	0xbe12e43a	-0.14344874
56	0x3cd05035	0.02542887
57	0xbd417d3f	-0.047238585
58	0xbdc9b108	-0.09848219
59	0xbd60df01	-0.054900173
60	0x3d1c5a4e	0.03817206
61	0xbe229106	-0.15875635
62	0xbd4995d2	-0.049215145
63	0x3d874012	0.06604017
64	0x3c2c65a3	0.010522279
65	0x3d0fb01a	0.035080053
66	0x3db72196	0.08941953
67	0xbdb9d0ee	-0.09073053
68	0x3cfa9b98	0.030591771
69	0x3e0cac66	0.1373764
70	0x3e0b76a7	0.13619481
71	0x3c0cc158	0.008591019
72	0x3de59c9c	0.112115115
73	0x3dd7d78f	0.105391614
74	0xbdab8557	-0.08375042
75	0xbc0a699e	-0.008448033
76	0xbe05810c	-0.13037509
77	0xbddcb4f3	-0.10776701
78	0xbe2ecc01	-0.17070009
79	0xbe330911	-0.17483927
80	0xbe1d878a	-0.15383735
81	0x3e00d66a	0.12581792
82	0xbe3e9910	-0.18613076
83	0x3cd934af	0.02651438
84	0x3dfa2962	0.122149244
85	0xbe2e4ac9	-0.17020716
86	0xbd96ad62	-0.07357289
87	0x3da1f129	0.07907326
88	0xbdfe5b25	-0.12419728
89	0x3e294825	0.16531427
90	0x3dba2ea3	0.090909265
91	0xbda1d3ab	-0.079017006
92	0xbe022e6e	-0.12713024
93	0x3dcb58b3	0.099290274
94	0xbe1582d1	-0.14600684
95	0xbde52f95	-0.11190716
96	0x3d910f37	0.0708298
97	0xbddc26f4	-0.10749617
98	0x3d095ef4	0.03353782
99	0x3d5cb715	0.053885538
100	0xbd76d5f1	-0.060262624
101	0x3cd6fca8	0.026243523
102	0xbcb88470	-0.022524089
103	0x3caad8c3	0.020855313
104	0x3d9d08f6	0.07667725
105	0x3d9ab45f	0.07553934
106	0x3d91e8d5	0.07124487
107	0xbe4a78cc	-0.19772643
108	0x3be3fda8	0.0069577284
109	0xbe2fd134	-0.17169648
110	0x3e346ba2	0.17619184
111	0x3cc70eb1	0.024298998
112	0xbdde5b24	-0.108572274
113	0xbd5543f3	-0.052066755
114	0x3d5e11df	0.054216262
115	0x3ddbef76	0.10739033
116	0xbe13313a	-0.14374247
117	0xbe540298	-0.20704114
118	0x3d686d60	0.056744933
119	0xbdd73ed9	-0.10510034
120	0xbd45a158	-0.048249573
121	0xbc9a25f8	-0.018816933
122	0xbe405f06	-0.18786249
123	0xbd347abe	-0.04406237
124	0x3d65818b	0.056031745
125	0xbe31cc3b	-0.17363064
126	0xbc2fcca3	-0.010729942
127	0xbda2bf4b	-0.079466425
128	0x3d3b3efb	0.04571436
129	0xbd63a096	-0.05557307
130	0x3c146326	0.009056842
131	0x3d6ef978	0.05834338
132	0x3dbef3e6	0.09323864
133	0x3d8a09ac	0.06740126
134	0x3be1370e	0.006873018
135	0x3e129654	0.14315158
136	0xbe049f6c	-0.1295144
137	0xbe7651d7	-0.24054657
138	0xbd69151c	-0.056904897
139	0x3cafd478	0.021463618
140	0xbda184fd	-0.078866936
141	0xbc424ba4	-0.011858854
142	0x3e10f566	0.14156112
143	0xbd6143aa	-0.05499617
144	0xbe2148f3	-0.15750484
145	0x3e045ff9	0.12927236
146	0x3d9d2b0d	0.07674227
147	0x3e0fb132	0.14032438
148	0x3c6612de	0.014042584
149	0xb92a997e	-0.00016269644
150	0x3d95b36c	0.07309613
151	0xbe1cfa15	-0.15329774
152	0xbdba1de9	-0.09087736
153	0x3d81b93d	0.063341595
154	0x3cb58bc6	0.022161376
155	0xbe2d6217	-0.1693195
156	0xbe089b51	-0.13340499
157	0xbd3482ef	-0.04407018
158	0xbe28e1b6	-0.16492352
159	0xbe040b6b	-0.1289498
160	0xbe1651ee	-0.14679691
161	0xbd9d7a6b	-0.07689365
162	0x3d765dfd	0.060148228
163	0x3e1ec36e	0.15504238
164	0x3d2c3abc	0.0420482
165	0xbd4b07cb	-0.04956798
166	0xbc61ec7b	-0.0137892915
167	0x3e20307a	0.15643492
168	0xbd34459f	-0.04401171
169	0xbe224d78	-0.15849864
170	0xbb98aeb4	-0.004659498
171	0x3d0693f3	0.03285594
172	0x3dbb566b	0.09147342
173	0x3d1e6279	0.03866813
174	0xbd55d3fb	-0.052204113
175	0xbdc1f9ce	-0.094714746
176	0x3c2080e0	0.009796351
177	0x3d5b0ed9	0.053480957
178	0x3d83ee9e	0.06441997
179	0xbd889e3f	-0.06670808
180	0xbd915365	-0.07095984
181	0xbba22baf	-0.004949055
182	0x3e2c7543	0.16841607
183	0xbd207b28	-0.03917995
184	0x3de7f779	0.113264985
185	0xbca09f3f	-0.019607184
186	0xbd8b1030	-0.06790197
187	0x3e237b7b	0.15965073
188	0x3df78516	0.12085931
189	0xbe159ec4	-0.14611346
190	0xbcedec93	-0.029043471
191	0xbd3f9702	-0.04677487
192	0x3dc1d8bd	0.09465168
193	0xbda8f2f7	-0.08249467
194	0xbd3f1803	-0.04665376
195	0x3da98fda	0.08279391
196	0x3df5dd59	0.12005109
197	0xbd0f2c55	-0.034954388
198	0xbc4cf62a	-0.012509862
199	0x3d4b956e	0.049703054
200	0x3de52e21	0.11190439
201	0x3e1f1c9c	0.15538257
202	0x3cf3fd7f	0.029783962
203	0xbd26be49	-0.040708814
204	0x3d4bfc08	0.049800903
205	0x3d07e0bd	0.03317331
206	0xbe12e41f	-0.14344834
207	0xbdfdd949	-0.123949595
208	0xbd03cdb6	-0.032178603
209	0xbd52dd84	-0.051480785
210	0x3d9b0eff	0.0757122
211	0xbcaec51d	-0.021334225
212	0xbe02ec70	-0.12785506
213	0x3cf1cff6	0.029518109
214	0xbb647c0e	-0.0034863981
215	0xbe54d3ce	-0.20783922
216	0x3b2e6850	0.0026612468
217	0x3ce5e8fe	0.0280652
218	0xbcb67103	-0.022270685
219	0xbe42e7fe	-0.1903381
220	0x3d94423d	0.072391964
221	0xbe320817	-0.17385899
222	0xbdb08a56	-0.086201355
223	0x3e0615e1	0.13094284
224	0x3ddce503	0.10785868
225	0xbd199e14	-0.03750427
226	0x3c06582f	0.008199736
227	0x3de93caf	0.113885276
228	0xbd4f7a63	-0.050653826
229	0xbe39a7a5	-0.18130358
230	0x3da3dc0a	0.080009535
231	0xbe5574e6	-0.20845374
232	0xbe0b5d4c	-0.13609809
233	0x3e25117b	0.1611995
234	0x3d56cb09	0.052439723
235	0x3e1415cb	0.14461438
236	0xbe216f34	-0.15765077
237	0xbe35ff5d	-0.17773195
238	0x3d0e6742	0.034766443
239	0xbcfe426a	-0.031037528
240	0x3e2a76e7	0.1664692
241	0xbd9cbe8d	-0.07653532
242	0x3d8cf628	0.06882888
243	0x3da6884f	0.081314676
244	0xbe39fd0b	-0.18162934
245	0x3cf42887	0.029804481
246	0xbe7b8786	-0.24563417
247	0x3db60dbd	0.08889339
248	0xbd8c0e7f	-0.068387024
249	0xbd9931c1	-0.07480193
250	0xbe500204	-0.20313269
251	0x3d8ab268	0.067723095
252	0xbe017888	-0.12643635
253	0xbdf61269	-0.1201523
254	0x3e60f436	0.21968159
255	0xbe499207	-0.19684611

transformer_blocks.0.attention.w_q.bias f4 [64]
0	0xba9c56da	-0.0011927739
1	0xbc05d5a5	-0.008168613
2	0x3b5b11b3	0.0033427298
3	0xbc0fff74	-0.008788932
4	0xbc2fdbef	-0.010733589
5	0xbc49e17e	-0.012321828
6	0xbc1f87c1	-0.009736956
7	0xbb0be422	-0.0021345695
8	0x3c5a49dd	0.013323274
9	0xbb0a3d81	-0.0021093788
10	0x3c2bc6d1	0.010484413
11	0xbb95a102	-0.004566313
12	0x3c56c06f	0.013107403
13	0xbc2af7f2	-0.010435091
14	0x3c80cb58	0.015721962
15	0x3d09bf30	0.033629596
16	0x3d8081b6	0.062747404
17	0xbce8e1b0	-0.028427929
18	0xbd06e749	-0.032935414
19	0xbd7d7017	-0.061874475
20	0xbd984927	-0.07435828
21	0x3c6e64d1	0.014550404
22	0x3cf71aa0	0.030164063
23	0xbd25ded7	-0.04049572
24	0x3c2ae816	0.01043131
25	0x3d168c19	0.0367547
26	0x3d202a11	0.039102618
27	0x3c75a184	0.014992122
28	0xbd35199c	-0.044213876
29	0x3d02fb20	0.031977773
30	0xbd44664d	-0.047949124
31	0xbd24a175	-0.04019304
32	0xbb2f4453	-0.0026743605
33	0xbd1d4c88	-0.038403064
34	0x3bd18205	0.0063936734
35	0xbca48213	-0.020081555
36	0x3c0d6e90	0.008632317
37	0xbce2c8ea	-0.027683694
38	0xbd65cc66	-0.056103133
39	0xbd18bf0a	-0.037291564
40	0xbcef35ba	-0.029200424
41	0x3c9d074c	0.019168518
42	0xbd1d0319	-0.038333032
43	0x3d364a66	0.044504546
44	0xbb212336	-0.0024587638
45	0xbccb8a32	-0.02484617
46	0xbcb55e37	-0.022139652
47	0x3c6a2547	0.014291114
48	0xbc9b1e34	-0.0189353
49	0x3b51fc88	0.003204139
50	0xbcea46f8	-0.028598294
51	0xbc97fe57	-0.018553896
52	0xbc9f2aee	-0.01942965
53	0x3c999e02	0.018752102
54	0x3d3c971e	0.046042554
55	0xbd07f77c	-0.033195004
56	0x3c0f4772	0.008745061
57	0xbc7fb754	-0.015607674
58	0xbc47680f	-0.012170806
59	0xbb1e2903	-0.0024133332
60	0xbadaedcd	-0.001670295
61	0xbccfb9eb	-0.025357207
62	0x397d52c7	0.00024158797
63	0x3d215950	0.039391816

transformer_blocks.0.attention.w_k.weight f4 [64, 64]
0	0x3e435a82	0.19077495
1	0xbe27c7d7	-0.16384827
2	0x3c9289c3	0.017887956
3	0x3e5dc85b	0.21658461
4	0xbe26db7b	-0.16294663
5	0xbe4c596c	-0.19955987
6	0x3e09d1ec	0.13458985
7	0x3e27350d	0.16328831
8	0xbe50da4f	-0.20395778
9	0xbe3d078b	-0.18459909
10	0xbd793020	-0.06083691
11	0xbe03ecc4	-0.12883288
12	0xbc722199	-0.014778518
13	0x3d9f93ca	0.077918604
14	0xbd9243ab	-0.07141813
15	0xbe0ad24d	-0.13556786
16	0xbdc8a727	-0.09797507
17	0xbe0387c3	-0.12844758
18	0xbe1e4586	-0.15456209
19	0xbe366c56	-0.17814764
20	0x3e25ee04	0.16204077
21	0x3dae8df9	0.08523173
22	0x3d37c1a7	0.044862416
23	0x3d95f396	0.07321851
24	0xbcbc90e7	-0.023018314
25	0xbd1c7d0f	-0.038205203
26	0xbcc5ea57	-0.024159594
27	0xbe0d6853	-0.13809328
28	0xbdb859d4	-0.09001508
29	0x3cba6bc2	0.022756461
30	0x3b9aca72	0.0047238404
31	0xbd82981b	-0.06376668
32	0x3e4057b4	0.18783456
33	0xbdaf6b23	-0.085653566
34	0x3da1b058	0.07894963
35	0x3d9ab25c	0.075535506
36	0xbd05c449	-0.032657895
37	0x3d8f18c9	0.06987149
38	0x3d7581c0	0.059938192
39	0x3d0ceafd	0.03440379
40	0xbe34633e	-0.17615983
41	0x3d37ade8	0.044843584
42	0x3d911551	0.07084144
43	0x3d93bb03	0.07213404
44	0xbdce5d8a	-0.10076435
45	0xbd131160	-0.035905242
46	0x3d757709	0.059927974
47	0xbe2390c0	-0.15973186
48	0xbe556089	-0.20837606
49	0x3d0e92f3	0.03480811
50	0xbda71347	-0.08157974
51	0xbd26ca2b	-0.040720146
52	0x3cd48024	0.025940008
53	0xbdd593f6	-0.10428612
54	0xbe2ccb19	-0.1687435
55	0xbe4b7fbb	-0.19872944
56	0xbe1c4d0d	-0.15263768
57	0xbe260385	-0.1621228
58	0xbd499dfc	-0.04922293
59	0x3ddf40da	0.10901041
60	0xbe036c96	-0.12834391
61	0xbe071f57	-0.13195549
62	0x3dfb6b21	0.122762926
63	0x3d300fbc	0.042983755
64	0x3e37b452	0.1793988
65	0xbdda27b8	-0.10652107
66	0xbe22f54c	-0.15913886
67	0x3dbff0c5	0.09372095
68	0xbe3663aa	-0.17811456
69	0x3d1e8754	0.038703278
70	0xbe305032	-0.17218092
71	0xbe2a42fe	-0.16627118
72	0xbd75e11e	-0.06002914
73	0xbe47e170	-0.19519591
74	0xbe04977f	-0.12948416
75	0xbdd153a2	-0.1022103
76	0x3dd3f80c	0.103500456
77	0x3d412259	0.047151897
78	0x3d220dab	0.039563816
79	0x3c320573	0.010865557
80	0x3e306afc	0.17228311
81	0xbe1f3733	-0.155484
82	0xbe096e1d	-0.13420911
83	0x3dc3c845	0.09559683
84	0x3e56454d	0.20924874
85	0xbdd704b4	-0.10498944
86	0xbcf7126d	-0.030160153
87	0xbd8880f3	-0.0666522
88	0xbd104b07	-0.0352278
89	0x3e1c143b	0.15242092
90	0xbe3f6298	-0.18689954
91	0x3dbe23ad	0.09284148
92	0x3ce6fd24	0.028196879
93	0xbd8e1cb9	-0.06939072
94	0x3d759110	0.059952796
95	0x3d91cc29	0.071190186
96	0xbd2481c5	-0.04016282
97	0x3ce59f3c	0.02803003
98	0x3b95853f	0.0045630033
99	0xbe0a06c9	-0.13479151
100	0xbe08a99e	-0.13345954
101	0xbd6e4f0d	-0.058180857
102	0x3db5ed1f	0.08883118
103	0x3cc30796	0.023807328
104	0x3daecabb	0.085347615
105	0xbcaa0c57	-0.020757837
106	0x3d67d413	0.056598734
107	0xbe0d5698	-0.13802564
108	0x3cdbd231	0.026833626
109	0x3da4f5af	0.08054673
110	0xbd768358	-0.060183853
111	0xbdd583de	-0.10425542
112	0xbe11e8e0	-0.14248991
113	0x3d4a61a7	0.049409535
114	0xbd916d67	-0.07100945
115	0x3cbefc3c	0.023313634
116	0x3e319ee4	0.17345768
117	0x3e185fa1	0.1488023
118	0x3e1bb97c	0.15207475
119	0x3dd8778b	0.10569676
120	0x3bfc1d7d	0.007693945
121	0x3c909b49	0.01765217
122	0xbe142ca9	-0.14470161
123	0xbccd770b	-0.025081178
124	0xbe41be42	-0.18920234
125	0x3c92d7ff	0.01792526
126	0x3d098abb	0.03357957
127	0x3e2a933b	0.16657726
128	0xbd8a98f1	-0.067674525
129	0xbd95be14	-0.07311645
130	0x3de2ce3b	0.110744916
131	0x3e779e2e	0.24181435
132	0x3d89735f	0.067114584
133	0x3e07ba56	0.13254675
134	0xbdc59d03	-0.09649088
135	0xbded0be8	-0.115745366
136	0xbca1114d	-0.01966157
137	0x3e2e1783	0.17001157
138	0x3e201529	0.15633072
139	0x3bd81f6e	0.0065955436
140	0xbd56b7cd	-0.05242138
141	0xbdf41f95	-0.11920086
142	0xbd8b6734	-0.06806794
143	0xbcedada2	-0.029013459
144	0x3dbc7a19	0.09202976
145	0xbcfd778f	-0.030940799
146	0xbe552f71	-0.20818879
147	0x3e17df2f	0.14831232
148	0x3db87a5b	0.090077125
149	0x3d7943a2	0.060855515
150	0x3d0af7e4	0.033927813
151	0xbdd95597	-0.10612028
152	0x3d230721	0.03980172
153	0xbaf07932	-0.0018346666
154	0xbe2ad391	-0.16682269
155	0xbe06be34	-0.13158494
156	0x3e4c12f5	0.19929107
157	0x3e483cbf	0.19554423
158	0xbd50ea12	-0.051004477
159	0x3d1eaa9e	0.038736932
160	0x3c727b0e	0.014799846
161	0x3d951d74	0.07281008
162	0xbd25822f	-0.040407356
163	0xbd9224ac	-0.07135901
164	0xbdf4b268	-0.11948091
165	0xbe0fe147	-0.1405078
166	0xbdec2b1b	-0.11531659
167	0xbdae37ac	-0.08506712
168	0x3d8ef255	0.06979815
169	0xbd2d12e5	-0.042254347
170	0xbdc8508a	-0.097809866
171	0xbdf47b98	-0.11937636
172	0x3e075668	0.13216555
173	0xbe086828	-0.13320982
174	0xbdcfdd67	-0.10149651
175	0x3dcd8462	0.10035016
176	0xbe24de5d	-0.1610045
177	0x3d740454	0.05957444
178	0xbce822d4	-0.02833692
179	0x3d852168	0.06500512
180	0xbde8a9c6	-0.11360507
181	0x3e27e924	0.1639753
182	0xbd4ca2f9	-0.04996011
183	0xbdef8ced	-0.11696801
184	0x3e109ede	0.14123103
185	0xbdacc9e5	-0.08436946
186	0x3d80eaca	0.062947825
187	0x3dcddbf8	0.10051721
188	0xbcaf1a6c	-0.021374904
189	0x3cfdcf8f	0.03098276
190	0xbd8d9857	-0.06913822
191	0x3e18d00f	0.14923118
192	0xbe1d0d79	-0.1533717
193	0x3e227843	0.15866189
194	0xbe227ed5	-0.15868695
195	0x3e062ccf	0.1310303
196	0xbb9cc124	-0.0047837663
197	0xbc4acfc1	-0.012378634
198	0xbdcc6ad2	-0.09981312
199	0xbdf01777	-0.117232256
200	0xbdff8ad7	-0.124776535
201	0xbe01d304	-0.12678152
202	0xbe397db4	-0.18114358
203	0xbe3a6bcb	-0.18205182
204	0xbe43ce99	-0.1912178
205	0xbc8bc365	-0.017060945
206	0xbd814581	-0.06312085
207	0x3cc66772	0.024219248
208	0x3d949557	0.07255047
209	0xbd8cea2b	-0.068806015
210	0x3dfb7014	0.122772366
211	0xbdc86f39	-0.09786839
212	0x3e314352	0.17310837
213	0xbdbd078b	-0.09229954
214	0xbd99ad85	-0.07503799
215	0xbe11e798	-0.14248502
216	0x3e0f4c32	0.1399391
217	0x3c6d0e48	0.014468737
218	0x3df4930e	0.11942111
219	0xbd61bf78	-0.05511424
220	0x3d1d309d	0.03837644
221	0xbdadfdd7	-0.08495682
222	0xbe1e10bc	-0.15436071
223	0xbddeb17f	-0.108736984
224	0xbdc36e0b	-0.095424734
225	0xbd7643da	-0.060123302
226	0x3e3ed73d	0.18636794
227	0xbe29c1e6	-0.16577873
228	0xbdfe0925	-0.12404088
229	0xbc338c80	-0.010958791
230	0xbe102776	-0.14077553
231	0xbad94be9	-0.0016578409
232	0x3e45363a	0.19258967
233	0xbcb7db9a	-0.022443581
234	0xbe04f2f6	-0.12983307
235	0xbcf52433	-0.029924488
236	0x3e3c45af	0.18385957
237	0x3cfde767	0.03099413
238	0xbe2979fe	-0.16550443
239	0x3dd72b0c	0.105062574
240	0x3e10909b	0.14117663
241	0x3e2f4478	0.17115963
242	0xbdc3676d	-0.09541211
243	0x3e39eb23	0.18156104
244	0xbe1e6b7e	-0.15470693
245	0x3e42b68c	0.19014949
246	0xbd1c3065	-0.03813209
247	0xbe25dc64	-0.16197354
248	0xbd42931e	-0.047503583
249	0xbda667d6	-0.08125274
250	0xbd20c64b	-0.039251607
251	0xbcfc2edd	-0.030784065
252	0x3d97fec3	0.07421639
253	0xbb0be28d	-0.0021344752
254	0xbe3c889c	-0.18411487
255	0x3e425b51	0.18980147

transformer_blocks.0.attention.w_k.bias f4 [64]
0	0xb633bf86	-2.678456e-06
1	0x367884fc	3.7032287e-06
2	0xb426d41c	-1.553712e-07
3	0x363b5795	2.791615e-06
4	0xb6d4bffe	-6.340443e-06
5	0x362fecb3	2.621481e-06
6	0x35eac63a	1.749205e-06
7	0x36848232	3.9490633e-06
8	0x368d9600	4.2195898e-06
9	0xb6367e48	-2.7193619e-06
10	0xb4d83908	-4.027463e-07
11	0x35029cea	4.8657114e-07
12	0xb611ce1d	-2.1726657e-06
13	0x358e46bc	1.0600411e-06
14	0xb55f7dd4	-8.325708e-07
15	0xb6590b8d	-3.2342243e-06
16	0x3646000c	2.9504326e-06
17	0x35e07930	1.6724571e-06
18	0xb62a4b5b	-2.5375837e-06
19	0xb6ba6da5	-5.5559963e-06
20	0x353ca6a8	7.0277974e-07
21	0xb68e6538	-4.243713e-06
22	0xb41e1e50	-1.4725924e-07
23	0x360efcd3	2.1306812e-06
24	0xb6030e16	-1.952872e-06
25	0xb6de9024	-6.6328957e-06
26	0xb7294730	-1.008976e-05
27	0x36a7a692	4.996379e-06
28	0x36b4fe45	5.394019e-06
29	0x35555ec6	7.9486597e-07
30	0xb54002c3	-7.152959e-07
31	0xb5f47a7c	-1.8215064e-06
32	0xb58b4ef2	-1.0379283e-06
33	0xb640ee64	-2.874899e-06
34	0xb5682c7e	-8.649148e-07
35	0xb618f360	-2.2791428e-06
36	0xb6a9d209	-5.061044e-06
37	0xb6225ecd	-2.4195062e-06
38	0xb77cdc29	-1.50716305e-05
39	0x35973188	1.1264792e-06
40	0xb5f64d0c	-1.8350852e-06
41	0x366c9df3	3.525868e-06
42	0xb549fe38	-7.524827e-07
43	0xb625444c	-2.462667e-06
44	0xb5c41774	-1.4609964e-06
45	0x36cf4068	6.1765786e-06
46	0x35ce54d8	1.5372889e-06
47	0xb67d4fde	-3.7746427e-06
48	0x34ae3bea	3.245362e-07
49	0xb38401f8	-6.147087e-08
50	0xb539a12c	-6.9152406e-07
51	0xb6426d09	-2.897172e-06
52	0xb626d188	-2.485789e-06
53	0xb5ada0da	-1.2936318e-06
54	0xb693850f	-4.3964315e-06
55	0x36288c18	2.5115496e-06
56	0x34815a78	2.4093947e-07
57	0x34e7712c	4.3109446e-07
58	0xb595baf0	-1.1155771e-06
59	0xb6908bd8	-4.3078144e-06
60	0xb6ade5f7	-5.182573e-06
61	0x35e1aa78	1.6813419e-06
62	0xb487a3e6	-2.526496e-07
63	0x36d85f15	6.4483706e-06

transformer_blocks.0.attention.w_v.weight f4 [64, 64]
0	0x3e7fc30e	0.24976751
1	0xbe0a3f7a	-0.13500777
2	0xbe368d8c	-0.17827433
3	0x3e4a78de	0.1977267
4	0xbe4647dd	-0.19363351
5	0xbdf923f4	-0.12165061
6	0x3bf37dc0	0.007430762
7	0x3e69344e	0.22773859
8	0xbe374678	-0.17897975
9	0x3e695133	0.22784881
10	0x3e085815	0.1331485
11	0xbcbca621	-0.023028435
12	0xbdf11b48	-0.117727816
13	0xbc710c2e	-0.0147123765
14	0xbcdc5d21	-0.026899876
15	0xbde27c46	-0.110588595
16	0x3e1bf891	0.1523154
17	0x3cb1fc97	0.02172689
18	0xbc71d539	-0.014760309
19	0x3c5d73e8	0.013516404
20	0x3e3184ae	0.1733577
21	0xbe1858f2	-0.1487768
22	0x3b1accde	0.0023620646
23	0x3d87a276	0.06622784
24	0xbc3c543b	-0.0114946915
25	0xbe132133	-0.14368133
26	0xbe44234f	-0.19154094
27	0x3e0275a6	0.12740192
28	0x3dfed0f6	0.124422
29	0xbe0532d0	-0.13007665
30	0xbe365102	-0.1780434
31	0x3e5fa9ce	0.21842119
32	0xbdd756aa	-0.10514577
33	0xbdfcb359	-0.12338895
34	0x3e3879e2	0.18015245
35	0x3e56dba5	0.20982225
36	0xbda8e5d2	-0.0824696
37	0xbe11b204	-0.14228064
38	0x3e1d3e25	0.15355738
39	0x3dc292a3	0.09500625
40	0x3e3c4253	0.18384676
41	0xbe3f629f	-0.18689965
42	0x3dbaaa4a	0.09114511
43	0xbd0a3a01	-0.033746723
44	0x3e8c8717	0.27446815
45	0xbaf4d3fa	-0.0018678897
46	0x3e76b041	0.24090673
47	0xbe1d04a0	-0.15333796
48	0x3e5857da	0.21127263
49	0x3d265259	0.040605877
50	0x3d015559	0.031575534
51	0xbe2821e1	-0.16419174
52	0xbcd5be8c	-0.026091836
53	0x3e2d5889	0.16928305
54	0xbcfaed51	-0.03063074
55	0x3c48ae14	0.012248535
56	0xbcfd2ba6	-0.030904602
57	0x3e610b74	0.21977025
58	0x3e30fcc4	0.17283922
59	0xbe5459e4	-0.20737416
60	0x3c9d5814	0.019207038
61	0x3d7aefdd	0.061263908
62	0xbe785e88	-0.24254811
63	0x3e602065	0.21887358
64	0x3db7da3a	0.0897717
65	0xbdc91d91	-0.098200925
66	0x3e0b9d12	0.13634136
67	0x3e22dda5	0.15904863
68	0x3e2b0464	0.16700894
69	0xbd69901d	-0.057022203
70	0x3e0d4bdb	0.13798468
71	0xbca848de	-0.020542558
72	0x3d2cf27d	0.042223442
73	0x3c8bb5b2	0.017054413
74	0x3da9d775	0.08293048
75	0x3dba963c	0.09110686
76	0x3e55335f	0.20820378
77	0xbc109b0d	-0.0088260295
78	0xbe334d94	-0.17510062
79	0xbe161f68	-0.14660418
80	0x3d80d763	0.06291082
81	0xbdfae2a3	-0.12250259
82	0xbd166943	-0.03672148
83	0xbe30dab6	-0.17270932
84	0xbe141637	-0.144616
85	0xbd318d45	-0.043347616
86	0x3e293621	0.16524555
87	0xbd819046	-0.06326346
88	0x3deb98cc	0.11503753
89	0xbe2319fd	-0.15927882
90	0xbe0ec02a	-0.13940492
91	0x3d951c3e	0.072807774
92	0x3d23d8be	0.040001623
93	0xbe2676dc	-0.16256279
94	0xbd865f4c	-0.06561145
95	0x3d605982	0.05477286
96	0x3e0702a1	0.13184597
97	0x3ab30dbe	0.0013660712
98	0xbc8f6b4e	-0.017507222
99	0x3de399f6	0.1111335
100	0xbdb1f460	-0.08689189
101	0x3ca243ec	0.019807778
102	0xbdfb16ca	-0.12260206
103	0xbd9c1bbc	-0.076224774
104	0xbd8fa9e7	-0.07014828
105	0xbe0c214f	-0.13684581
106	0xbdab52ca	-0.083654
107	0x3c656b8d	0.014002693
108	0x3bbac7c8	0.0057000853
109	0xbdbd1dd3	-0.09234204
110	0xbd59e0ec	-0.053193018
111	0x3da8584e	0.08219968
112	0xbcb3be2b	-0.021941265
113	0x3e3296e8	0.17440379
114	0x3e28d624	0.16487938
115	0xbd7296a9	-0.059225712
116	0xbd7a7899	-0.061150167
117	0x3e15e31c	0.14637417
118	0x3d220d89	0.03956369
119	0xbe12e080	-0.14343452
120	0xbda6a0d4	-0.08136144
121	0x3e3e4bc4	0.1858359
122	0x3d5ee3c8	0.054416448
123	0x3e5d198b	0.21591775
124	0x3c9a5a49	0.01884188
125	0x3d42cafd	0.047556866
126	0x3e2574e3	0.1615787
127	0xbe2aa9a8	-0.16666281
128	0xbdd5776f	-0.10423171
129	0xbe10f7aa	-0.14156976
130	0xbe035c0a	-0.12828079
131	0xbdc86c2d	-0.09786258
132	0x3d3f267e	0.04666757
133	0x3e09fad7	0.13474594
134	0xbe204445	-0.15651043
135	0xbe643df0	-0.22289252
136	0xbd82b0f0	-0.063814044
137	0x3e171a85	0.1475621
138	0x3e559744	0.20858485
139	0x3d59c2a3	0.053164136
140	0xbd5999c6	-0.053125165
141	0x3da2a9aa	0.07942517
142	0xb9168fec	-0.0001435873
143	0xbe31935f	-0.17341374
144	0x3e57f290	0.21088624
145	0xbdcbdeea	-0.09954627
146	0x3c93ca7a	0.018040884
147	0x3d0bd38a	0.034137286
148	0x3e19e49d	0.15028615
149	0xbdef2b73	-0.11678209
150	0xbd94586e	-0.07243429
151	0xbd3c5cef	-0.045987066
152	0xbd804f16	-0.062650844
153	0xbd2f394c	-0.042779252
154	0x3cb99cd5	0.022657791
155	0xbd4a8db2	-0.049451537
156	0x3d47bc5b	0.048763614
157	0xbe3e3e97	-0.18578564
158	0xbd8de76c	-0.06928906
159	0x3de153a3	0.110022806
160	0x3e25c470	0.16188216
161	0x3d4759e6	0.04866972
162	0xbe0ca7fd	-0.13735957
163	0xbd3b9930	-0.045800388
164	0xbc46bcac	-0.012129944
165	0xbd93d12d	-0.072176315
166	0x3de4017e	0.11133097
167	0xbd6bde6e	-0.057585172
168	0xbd6b37b9	-0.05742619
169	0x3e4d0deb	0.2002484
170	0x3e079337	0.13239752
171	0x3ded5f6f	0.11590468
172	0x3e732c0b	0.2374727
173	0x3e0561f8	0.13025653
174	0x3e04ef05	0.12981804
175	0x3e0b7efb	0.13622658
176	0x3e05b402	0.13056949
177	0x3a02c8ab	0.00049890083
178	0xbe47d354	-0.19514209
179	0x3c13e7e1	0.009027452
180	0xbd6dde7e	-0.058073513
181	0x3d8cb6b5	0.06870786
182	0x3e178059	0.14795054
183	0x3e4141fc	0.18872827
184	0xbcc5cf13	-0.024146592
185	0xbe377c18	-0.17918432
186	0x3da144a3	0.078744195
187	0xbdc02b0d	-0.09383211
188	0x3c334baf	0.010943337
189	0xbe4b763a	-0.19869319
190	0xbc6d125b	-0.014469708
191	0xbe2a978c	-0.16659373
192	0x3e51f540	0.20503712
193	0xbd148586	-0.03626015
194	0xbd55360e	-0.052053504
195	0xbe06f2d1	-0.13178565
196	0x3e7b5c7b	0.24546997
197	0x3e61eacf	0.22062229
198	0x3e38ef63	0.18060069
199	0x3e3a850a	0.18214813
200	0x3d0c3e40	0.034239054
201	0x3d3d87c9	0.046272073
202	0xbd96d63b	-0.0736508
203	0x3d9b9507	0.07596784
204	0xbe2735b9	-0.16329087
205	0xbe100929	-0.14065994
206	0xbe45acc6	-0.19304189
207	0x3c802b29	0.01564558
208	0xbe71075e	-0.23537967
209	0x3c23b6bb	0.009992297
210	0x3d499c52	0.049221344
211	0x3dbf9666	0.09354858
212	0xbe463d0d	-0.19359227
213	0xbd9d7c9c	-0.07689783
214	0xbaf6b0f7	-0.001882105
215	0xbdaffe34	-0.08593407
216	0x3d3b48a7	0.045723584
217	0x3e08c2b7	0.13355528
218	0x3e37f372	0.17963961
219	0xbdbb981e	-0.091598734
220	0xbe6046cd	-0.21902008
221	0xbe137459	-0.14399852
222	0xbe3d0eb2	-0.18462637
223	0xbd75f7ce	-0.060050778
224	0x3d97311a	0.07382412
225	0x3df56b22	0.119833246
226	0x3c3f0ca3	0.011660728
227	0x3e2fba44	0.17160898
228	0xbcc60aff	-0.024175165
229	0xbde4970b	-0.11161622
230	0xbe4ecf95	-0.20196374
231	0x3d668f88	0.056289226
232	0x3e47af46	0.19500455
233	0x3e13ea22	0.14444783
234	0x3e1fe5b3	0.15614967
235	0xbe1ead51	-0.15495802
236	0xbd085592	-0.03328473
237	0xbca14c6b	-0.01968976
238	0xbe5df5c7	-0.21675788
239	0xbe2ba8ac	-0.16763562
240	0xbc520000	-0.012817383
241	0xbe0ac416	-0.13551363
242	0x3e0b390a	0.13595977
243	0x3db41f85	0.087950744
244	0xbe099e58	-0.1343931
245	0x3e3e1dfa	0.18566123
246	0x3e58c1f1	0.21167733
247	0xbe4e700d	-0.20159931
248	0x3cfcd63a	0.03086387
249	0x3e1f3ba6	0.15550098
250	0x3d525a9a	0.051355936
251	0x3e1f29c0	0.1554327
252	0xbe205ead	-0.15661116
253	0xbdc366c4	-0.09541085
254	0xbdd0f943	-0.10203793
255	0x3df66446	0.120308444

transformer_blocks.0.attention.w_v.bias f4 [64]
0	0x3c090cc9	0.008364865
1	0x3cd8c1da	0.026459623
2	0x3c2234bf	0.009900271
3	0xbbfee07b	-0.007778225
4	0xbc2ad22a	-0.010426084
5	0xbbb8ce00	-0.0056397915
6	0xbb08a72b	-0.0020851593
7	0x3c25cf70	0.010120258
8	0xbc11c363	-0.0088966815
9	0x3c3b1a59	0.011419856
10	0x3b1fe329	0.0024396873
11	0xbbe2d580	-0.006922424
12	0x3b73827e	0.0037156637
13	0xbb05f4d5	-0.002044012
14	0x3bbfeb7c	0.0058569293
15	0xbb0faaf8	-0.0021921974
16	0xbc13d0c3	-0.009021941
17	0xbc695daa	-0.014243523
18	0x3c462172	0.012092935
19	0x3c158276	0.009125343
20	0xbba3e6ed	-0.0050018937
21	0xbbf53fe5	-0.0074844235
22	0x3c87bbb2	0.016568992
23	0xba86e1da	-0.0010290698
24	0xbc5ee8ff	-0.013605355
25	0xbbb02a16	-0.005376111
26	0xbc440147	-0.011963195
27	0xbc9ddcbf	-0.019270299
28	0x3b058321	0.0020372348
29	0xbcd32161	-0.025772752
30	0xbbec12a7	-0.007204372
31	0xbc4a158f	-0.0123342415
32	0x3cc8be43	0.024504786
33	0xbc3768b7	-0.0111944
34	0xbb19e6d8	-0.002348354
35	0x3a4dfdb2	0.0007857933
36	0x3b287e02	0.0025709872
37	0x3cbd8e10	0.02313903
38	0x39daf84c	0.00041765196
39	0xbba53c76	-0.005042608
40	0xbbc07c52	-0.005874195
41	0x3bae966e	0.005327991
42	0x3ceafd98	0.028685376
43	0x3bfd61a8	0.007732589
44	0xbc1cbdce	-0.009566737
45	0xbc558278	-0.013031594
46	0xbc5b7e9d	-0.013396886
47	0x3b85e23a	0.004085806
48	0x3b9b7c37	0.004745032
49	0x3cd78974	0.02631066
50	0xbc2178cc	-0.00985546
51	0x3c4d23c5	0.012520735
52	0xbb34bd7d	-0.0027578764
53	0xbb803a3e	-0.003913193
54	0x3c9b0394	0.018922605
55	0x3b0b0f13	0.0021218702
56	0x3c783bc7	0.015150971
57	0xbc83fc2d	-0.016111458
58	0x3c9ba588	0.01899983
59	0x3c660715	0.014039774
60	0x3c5d2fee	0.013500197
61	0xbc18673b	-0.009301956
62	0x3c45d2bb	0.012074168
63	0x3bcbcef9	0.0062197414

transformer_blocks.0.attention.w_o.weight f4 [64, 64]
0	0x3e3b974c	0.18319434
1	0xbdfc6b31	-0.12325133
2	0xbd4c5fa6	-0.049895905
3	0x3d433a8d	0.04766326
4	0xbd15c29b	-0.036562543
5	0xbd37eebf	-0.04490542
6	0xbcc55b5e	-0.024091419
7	0x3e00ade6	0.12566337
8	0x3e278fb3	0.1636341
9	0xbe12d663	-0.14339595
10	0xbd010ed1	-0.03150827
11	0xbd1e277b	-0.03861187
12	0xbe1fae8e	-0.15593931
13	0xbe414ae2	-0.18876222
14	0x3dd9fda1	0.10644079
15	0x3e04b6a7	0.12960301
16	0xbca760af	-0.020431845
17	0xbe068670	-0.13137221
18	0x3dbe5901	0.0929432
19	0x3da6ad8e	0.08138572
20	0x3e226f7e	0.15862843
21	0xbda3ff50	-0.08007681
22	0x3e0c563f	0.13704775
23	0x3dbb1d34	0.091364294
24	0x3de35007	0.110992484
25	0xbd13bf5f	-0.036071178
26	0xbe5558e0	-0.20834684
27	0xbdaf87b3	-0.085708044
28	0x3cbdc18c	0.02316358
29	0x3da57d90	0.0808059
30	0x3e2379e8	0.15964472
31	0xbe0bcc82	-0.13652232
32	0xbe375264	-0.17902523
33	0x3e4d1883	0.20028882
34	0x3e27b8eb	0.16379134
35	0x3d4ba693	0.049719404
36	0x3d8b0b3c	0.06789252
37	0xbe470f92	-0.19439533
38	0xbe264e71	-0.1624086
39	0x3d08bd02	0.033383377
40	0x3d789d23	0.060696732
41	0x3dfb415b	0.12268325
42	0xbe0b0c50	-0.13578916
43	0x3e0a2ff2	0.13494852
44	0x3dd2e294	0.102971226
45	0x3ddfb309	0.1092282
46	0xbdc76564	-0.097361356
47	0xbd9c4cb2	-0.07631816
48	0xbe0b8aef	-0.13627218
49	0xbe0fc0ba	-0.14038363
50	0x3dc94683	0.09827902
51	0xbd845e51	-0.06463302
52	0x3db8cddd	0.0902364
53	0xbe1453c7	-0.14485084
54	0xbdaac409	-0.08338172
55	0xbd148897	-0.036263075
56	0xbdf2f240	-0.11862612
57	0x3e1cd550	0.15315747
58	0xbc88fc49	-0.016721861
59	0x3b1d2b3b	0.0023982066
60	0xbb08726e	-0.0020820159
61	0xbd8d689a	-0.06904717
62	0x3ca65e1a	0.020308543
63	0xbe29361a	-0.16524544
64	0xbdc47c0b	-0.09593972
65	0xb9b81383	-0.00035109752
66	0x3da8d4e7	0.08243733
67	0xbe421d1a	-0.18956414
68	0xbdc7bc6e	-0.09752737
69	0x3cce3c1a	0.025175143
70	0xbcb3a969	-0.021931367
71	0xbc95bbec	-0.018278085
72	0xbd5f1de1	-0.054471854
73	0xbe515095	-0.20440896
74	0x3e244095	0.16040261
75	0xbdbdddda	-0.092708305
76	0x3e6512b1	0.22370411
77	0x3df0b88b	0.11753949
78	0xbdf89600	-0.12137985
79	0x3ddcdff0	0.107849
80	0x3c753d56	0.014968237
81	0xbdf44b48	-0.11928421
82	0x3e0b3b01	0.13596727
83	0xbe21c408	-0.15797436
84	0x3e01bfef	0.12670873
85	0xbdf5b34a	-0.11997087
86	0x3dfa90a1	0.12234617
87	0x3e6fee95	0.23430856
88	0xbda75fc9	-0.081725664
89	0xbdfd2a0e	-0.12361537
90	0xbcc1ec8a	-0.02367236
91	0xbc9e12a9	-0.019296007
92	0x3c3e3dcf	0.011611416
93	0xbe0a2c95	-0.13493569
94	0x3bfa864b	0.0076454035
95	0x39a520d4	0.0003149571
96	0x3c2e84dc	0.010651793
97	0x3e0b0080	0.1357441
98	0xbe03ca41	-0.12870122
99	0x3db9f02b	0.090790115
100	0xbdf7d673	-0.1210145
101	0x3e2c9573	0.16853885
102	0x3d8019a7	0.06254893
103	0x3d43709b	0.04771481
104	0x3e1a51c6	0.15070257
105	0x3e4d0a51	0.20023467
106	0x3d3b5990	0.04573971
107	0x3d97978c	0.07401952
108	0x3cfa2276	0.03053401
109	0xbd7d8bfd	-0.06190108
110	0xbe5c33f0	-0.21504188
111	0x3c803b3a	0.015653241
112	0xbdb8439b	-0.0899727
113	0xbe269ac6	-0.16269979
114	0xbcec4798	-0.028842732
115	0xbd4572bf	-0.048205134
116	0xbdece7a1	-0.11567617
117	0x3dd145b3	0.10218372
118	0x3e111c33	0.14170913
119	0x3e41fa16	0.18943056
120	0x3ceb2fd9	0.028709339
121	0xbe1ada93	-0.15122442
122	0x3e29ed9a	0.16594544
123	0xbde77aef	-0.113027446
124	0xbdd81c11	-0.10552228
125	0xbdf2b7f9	-0.11851496
126	0xbe2c8e05	-0.16851051
127	0xbdb7da98	-0.0897724
128	0xbd3b1812	-0.045677252
129	0xbca74943	-0.020420676
130	0xbe464398	-0.19361722
131	0xbc8d4b1c	-0.017247729
132	0xbd28b546	-0.0411885
133	0xbe266c47	-0.16252242
134	0xbd4f0b50	-0.050547898
135	0xbd83ca5a	-0.0643508
136	0x3da4c7fd	0.08045957
137	0xbe21aa01	-0.15787508
138	0x3e54e06e	0.20788738
139	0x3d1d7064	0.038437262
140	0x3de70810	0.11280835
141	0xbe09d7e6	-0.13461265
142	0x3e3c7b06	0.18406305
143	0x3ce66563	0.028124517
144	0xbe491eb3	-0.19640617
145	0xbda9a4e4	-0.082834035
146	0x3ca744a6	0.020418476
147	0xbdba9acb	-0.09111556
148	0x3dce6ca5	0.10079316
149	0xbd0515b4	-0.0324914
150	0x3d5e6345	0.05429389
151	0x3e602c6a	0.21891943
152	0xbccd0993	-0.02502898
153	0xbe3d5d14	-0.18492538
154	0xbe12fb94	-0.14353782
155	0xbc344daf	-0.011004849
156	0xbdbf15ef	-0.093303554
157	0x3dca1d22	0.09868838
158	0xbdb5004d	-0.08837948
159	0x3e0bc6d6	0.13650069
160	0x3d7574b8	0.059925765
161	0xbd9119b5	-0.07084981
162	0x3d6f6f43	0.058455717
163	0xbe06d85f	-0.13168477
164	0x3e2a395c	0.16623443
165	0xbdc323aa	-0.09528287
166	0x3dae77d7	0.085189514
167	0xbdd1376b	-0.10215648
168	0x3dac378f	0.084090345
169	0xbe00fe6e	-0.12597057
170	0x3d839586	0.06425004
171	0x3e287f29	0.16454758
172	0x3ce719f9	0.028210627
173	0xbe2b31ff	-0.16718291
174	0x3d8976df	0.06712126
175	0x3dce8477	0.100838594
176	0xbe06dd6e	-0.13170406
177	0x3d911a28	0.07085067
178	0x3e31bdd3	0.17357568
179	0xbdc9394b	-0.09825381
180	0xbe333a5e	-0.17502734
181	0x3e099d4c	0.1343891
182	0xbd47ce5e	-0.04878079
183	0xbdfe7bbe	-0.12425946
184	0xbe252a35	-0.16129382
185	0xbcaea672	-0.021319602
186	0x3e132372	0.1436899
187	0xbe2c29fe	-0.16812894
188	0xbd4b748c	-0.049671695
189	0x3e5d56d0	0.21615148
190	0x3e2a5791	0.16634966
191	0x3cf7350c	0.030176662
192	0xbd02b754	-0.031913117
193	0xbe05663e	-0.13027284
194	0xbc98f9b4	-0.018673755
195	0xbe4366ef	-0.19082235
196	0x3b9b103c	0.00473216
197	0x3d2243a2	0.03961528
198	0xbe1e8d8d	-0.15483685
199	0x3e03aba7	0.12858449
200	0x3e32a946	0.17447385
201	0x3e12b20a	0.14325729
202	0xbcc5167b	-0.024058571
203	0x3da2ded3	0.079526566
204	0xbdbfc74b	-0.09364184
205	0xbe041dcb	-0.1290199
206	0xbd8851f2	-0.06656255
207	0xbdba6033	-0.0910038
208	0xbe191ae2	-0.14951661
209	0x3c8075c7	0.01568116
210	0x3de9dcfa	0.11419101
211	0x3ce04b66	0.027379703
212	0x3cd7ea3e	0.026356813
213	0x3cbf2bf5	0.02333639
214	0xbda7c1dc	-0.081912726
215	0x3e196512	0.14979962
216	0xbdc34385	-0.09534363
217	0x3e2295cf	0.1587746
218	0x3defbc7c	0.117058724
219	0x3d80c5e4	0.06287745
220	0xbe0dbc74	-0.1384142
221	0xbe4f7063	-0.20257716
222	0x3e34d9db	0.1766123
223	0x3e204fde	0.15655467
224	0x3d940ecf	0.07229387
225	0x3e58630e	0.21131536
226	0xbe67510e	-0.22589514
227	0x3dc4f6cd	0.09617386
228	0x3ccf39bb	0.025296083
229	0x3e06084a	0.130891
230	0x3cd0198e	0.02540281
231	0x3e218372	0.15772799
232	0x3dc76591	0.09736169
233	0xbe19195d	-0.14951082
234	0xbd6a20dc	-0.057160243
235	0x3e0fba22	0.14035848
236	0xbbffd7f9	-0.0078077284
237	0xbdb22f4d	-0.08700428
238	0x3dfef00a	0.124481276
239	0x3e47f2bc	0.1952619
240	0x3d35b3b6	0.04436084
241	0xbc2dc97a	-0.010607118
242	0xbd070c9a	-0.032971002
243	0x3e0b747c	0.13618654
244	0xbe1a7719	-0.15084495
245	0x3d23c9e1	0.03998745
246	0xbd5d919b	-0.05409394
247	0xbdd3a5e0	-0.103343725
248	0xbd921f8e	-0.07134925
249	0xbe45e851	-0.19326903
250	0x3dc05ae9	0.0939234
251	0xbe3616a8	-0.1778208
252	0xbd1dc2ea	-0.038515963
253	0xbdbcee59	-0.09225149
254	0x3df716e1	0.12064911
255	0xbe0ba60e	-0.13637564

transformer_blocks.0.attention.w_o.bias f4 [64]
0	0xbc2e8ce1	-0.010653705
1	0x3caeb2b7	0.021325452
2	0xbc788551	-0.015168504
3	0x3c0142cc	0.007889461
4	0xbc2191f3	-0.009861457
5	0x3c5e292c	0.013559621
6	0xbc67917a	-0.014133805
7	0x3cd17ab1	0.0255712
8	0xbbb4e7fb	-0.0055208183
9	0x3c739a7d	0.014868376
10	0x3a5d3200	0.00084379315
11	0xbbdc8337	-0.006729509
12	0xbba9b79b	-0.005179358
13	0xbc6779af	-0.014128133
14	0xbc0a518d	-0.008442295
15	0x3b8b2974	0.004246885
16	0x3c14a231	0.009071873
17	0x3b41bb2d	0.0029561028
18	0x3c903042	0.017601136
19	0x3c9b7261	0.018975439
20	0x3c117048	0.008876868
21	0xbc87c7d0	-0.01657477
22	0xbc2ede15	-0.010673066
23	0xbb0529ad	-0.002031903
24	0xbbea4d48	-0.007150326
25	0x3c067fa8	0.008209147
26	0xbaa8fae0	-0.0012892149
27	0xbc77ad87	-0.015117056
28	0x3c018bff	0.007906913
29	0xbc8351d7	-0.016030235
30	0xbc80d8ee	-0.01572844
31	0x3b7fa8f3	0.0039010614
32	0x3c3a6133	0.011375713
33	0xbca8afc9	-0.020591633
34	0x3c455420	0.012043983
35	0xbadb1c61	-0.0016716832
36	0xbc075fb2	-0.008262562
37	0xbc9ab5c9	-0.01888551
38	0xba4b27fb	-0.0007749793
39	0xbb9a72c7	-0.0047133896
40	0x3b006dfa	0.00195968
41	0xbb6b7fbb	-0.0035934288
42	0x3cab8fc3	0.020942574
43	0x3bb3d76a	0.005488326
44	0xbc83c580	-0.016085386
45	0xbc0a6ceb	-0.00844882
46	0xbb32cf7f	-0.0027284322
47	0xbb13cb7a	-0.0022551701
48	0x3b3bebef	0.0028674563
49	0xbc7a7e1d	-0.015288857
50	0x3cbfd1c0	0.023415446
51	0xbc20f4a4	-0.009823952
52	0x3c26d026	0.010181462
53	0xbb0d8923	-0.0021596632
54	0xb98e77f4	-0.00027173723
55	0xbca8d813	-0.020610845
56	0xbbb39fb9	-0.005481687
57	0x3c1c3a9d	0.009535459
58	0xbb99c4e6	-0.0046926616
59	0xbbebca48	-0.0071957447
60	0xbc1eb640	-0.0096870065
61	0xbad8d630	-0.0016543325
62	0x3c36c91f	0.011156349
63	0x3c7c9172	0.015415536
