models/calcgpt_emb32_lay1_head2_ep3_bs4_lr1e03_ds20/checkpoint-12/model.safetensors (safetensors, 155984 bytes, 16 tensors)

transformer.h.0.attn.c_attn.bias f4 [96]
000000 4f fa 3a 3a be eb 8e b9 b3 0f 3b 3a 12 da 15 ba
       0.0007132636 -0.00027259992 0.0007135823 -0.0005716394
000010 1e b7 73 b8 b3 ed 4b ba 36 c9 81 ba e3 e0 3a 39
       -5.8106256e-05 -0.00077792554 -0.0009901884 0.00017822119
000020 46 c8 d9 39 72 25 a8 b9 99 00 6b ba 1e 24 92 ba
       0.0004153868 -0.00032071356 -0.00089646276 -0.001114968
000030 0e 6d 2f 3a e9 34 8c 3a 86 31 02 3a d4 c6 a7 39
       0.00066919706 0.0010696921 0.0004966486 0.0003200086
000040 f4 aa 93 3a 03 fe d1 39 98 34 a8 ba 42 c0 a2 3a
       0.0011266158 0.0004005284 -0.0012833057 0.0012416916
000050 be 70 a6 b9 fc 19 97 ba 6a 50 0c ba 1e e2 44 ba
       -0.00031745987 -0.001152813 -0.0005352559 -0.0007510501
000060 a6 dd 74 3a ec f5 b8 b9 dd f7 23 3a a7 3a 81 ba
       0.00093408895 -0.0003527844 0.0006254891 -0.0009859399
000070 62 ab a2 ba cd dc 8e 39 b3 98 02 3a 47 cf 92 ba
       -0.0012410695 0.0002724886 0.00049818604 -0.001120069
000080 ed f0 f9 b2 d8 1b da 30 b0 a3 33 33 03 4e 66 b2
       -2.9096975e-08 1.5869501e-09 4.1825558e-08 -1.34055e-08
000090 82 22 61 32 74 5f c9 b2 84 18 8e b1 22 90 06 32
       1.310457e-08 -2.3442887e-08 -4.135531e-09 7.832599e-09
0000a0 ea 46 a0 b3 02 45 40 33 d6 c8 92 b3 e1 ac 22 b3
       -7.46348e-08 4.4766246e-08 -6.8351866e-08 -3.7875797e-08
0000b0 12 bd 63 30 aa 8c 85 31 24 13 2e b3 16 7b b7 32
       8.2850804e-10 3.886801e-09 -4.052994e-08 2.1359977e-08
0000c0 ca d0 47 33 6c 65 0e 33 92 2a 06 33 ce b1 33 b2
       4.652319e-08 3.3154194e-08 3.1238024e-08 -1.0459599e-08
0000d0 c9 7f 83 b3 c9 ed 24 b2 20 e9 83 b2 a1 6a 02 b3
       -6.123407e-08 -9.6001225e-09 -1.535642e-08 -3.0364962e-08
0000e0 a7 c7 2f b3 f3 f4 f3 33 80 3a c5 33 06 25 f4 32
       -4.0926945e-08 1.1360125e-07 9.1841684e-08 2.8422175e-08
0000f0 14 46 92 b2 c4 8f dc b3 00 6a 7f b3 0c 54 c7 b2
       -1.7028505e-08 -1.0270699e-07 -5.946822e-08 -2.320487e-08
000100 91 46 90 3a 0e d3 9e 3a 98 5a 17 3a 70 ba 54 3a
       0.0011007359 0.0012117343 0.00057736924 0.00081149396
000110 a5 24 8d ba 9c e5 9b ba 9e b1 7a ba f5 74 8b 3a
       -0.0010768367 -0.001189399 -0.000956321 0.0010639714
000120 d2 ee 97 b9 fe 37 78 39 68 23 45 ba 9e 27 78 3a
       -0.000289789 0.00023671982 -0.00075202296 0.00094663526
000130 2f 1c a1 ba 13 b1 a7 3a 2f 4a 6f 3a aa f4 96 ba
       -0.0012291725 0.0012793861 0.00091281807 -0.0011517007
000140 14 c2 9a ba 7e fa ab ba e6 88 8c ba 95 56 96 ba
       -0.0011807107 -0.0013120917 -0.0010721951 -0.0011469895
000150 a4 77 99 39 6a 4b a7 3a ed 92 9f 3a 38 ff 14 ba
       0.00029271573 0.0012763564 0.0012174525 -0.00056837825
000160 ae 17 88 3a 3f 0c a5 3a 18 ec 7d ba 90 b0 75 b8
       0.0010383034 0.0012592151 -0.0009686365 -5.857699e-05
000170 9c 4a a2 3a 92 90 a0 ba 3d 31 aa 3a d0 9b 2b 38
       0.0012381854 -0.0012250117 0.0012984645 4.091469e-05

transformer.h.0.attn.c_attn.weight f4 [32, 96]
000000 3b f1 8e 3c b1 af f2 ba f2 82 30 bd c0 d7 71 b8
       0.017449012 -0.0018515495 -0.04309363 -5.765981e-05
000010 56 4a 4d bc 9b af 91 bc 52 49 74 bc 42 03 81 3c
       -0.01252993 -0.01778393 -0.014910059 0.015748624
000020 3e b1 2a bc 85 43 28 3b 31 42 8c 3b 52 57 c1 3b
       -0.010418234 0.002567501 0.0042803516 0.005900302
000030 3c 7f 73 b9 dd 45 8e 3a 6c 1f b7 3b 9c 0e 0f bc
       -0.00023221684 0.0010854561 0.0055884626 -0.0087315105
000040 0a d9 06 3d 1f 5b 29 bd 23 4f b9 3b 2c 27 3a bc
       0.03292183 -0.041346665 0.005655186 -0.011361878
000050 96 80 27 3b 55 f3 09 bb e4 f2 8d 3c a1 dd c3 bb
       0.002555882 -0.0021049578 0.017327733 -0.005977348
000060 47 ea 78 bc be 74 64 3a d6 de af bc 2e 16 50 3b
       -0.015192575 0.00087149057 -0.021468561 0.0031751501
000070 db d0 4a 3c 83 56 e6 3a 80 f8 eb bb e5 88 1a bd
       0.012378897 0.001757339 -0.0072012544 -0.03772821
000080 9a 69 1d bb 9c 3c 68 3c 86 20 61 ba 45 18 2e bc
       -0.0024019242 0.014174607 -0.0008587915 -0.0106259035
000090 7a 9f 25 3c 7d 09 95 3a bb 85 f2 3b 04 45 98 bc
       0.010108823 0.0011370626 0.007401196 -0.018587597
0000a0 e1 e2 d8 3b 70 3b 40 bd bb 4b 61 3c 7e 88 61 3c
       0.006618843 -0.046931684 0.013750966 0.013765452
0000b0 14 45 95 bc 2f dc 66 bc cd b4 81 bb f5 01 65 bc
       -0.018221416 -0.014090582 -0.0039583207 -0.013977517
0000c0 af 0a 20 bc 7e b2 c0 bc ec c2 74 bc cd 8b e0 3c
       -0.009768172 -0.023522612 -0.014939051 0.027410412
0000d0 f4 78 53 b8 cd c3 3b bc d1 85 77 3c 9e e2 a3 3c
       -5.0418967e-05 -0.011460257 0.015107588 0.02000552
0000e0 8d e3 35 3c 42 81 14 3c cf 38 a1 bc 52 c5 cf bc
       0.011101616 0.009064021 -0.019680409 -0.025362644
0000f0 99 5d 01 3d 28 23 e4 bb 4c 37 08 bc 56 5e 3c 3d
       0.031583402 -0.0069621988 -0.008313965 0.045988403
000100 5f ec e6 bc b4 8c 9b 3a 44 0c 9c 3c 8d e6 12 bd
       -0.028188882 0.0011867494 0.019048817 -0.0358644
000110 df 84 ef bc 15 52 d2 3b 77 06 a7 3b 10 1d 41 bc
       -0.029238163 0.0064184763 0.005097206 -0.011786714
000120 67 81 e2 3c 67 9f 19 3c 69 44 8f 3b 97 db 48 bc
       0.027649594 0.009376383 0.004372169 -0.012259386
000130 af 6e d4 bc f4 a8 82 bb 88 77 bd ba f9 86 2f 3b
       -0.025931684 -0.003987426 -0.0014455179 0.002678333
000140 83 14 14 3c 1e 97 f5 bc f6 67 58 3c 4c 6c fd 3b
       0.0090380935 -0.029979285 0.01320838 0.0077338573
000150 cd 66 82 3c d5 fd 62 bc 33 33 5c bb d4 76 84 bc
       0.01591816 -0.013854464 -0.0033599853 -0.016169943
000160 56 b3 53 bc d4 2c 3a bc f6 8c 76 3c b1 79 bf bc
       -0.012921175 -0.011363227 0.015048256 -0.023373457
000170 7e 28 6f bc 80 ff fe 3b 20 b0 d1 3b e9 a1 9f bc
       -0.014597056 0.007781923 0.0063991696 -0.019486384
000180 3e e4 55 39 9d 90 a7 3b 63 0e b7 3b a1 75 99 3a
       0.0002039829 0.005113675 0.005586432 0.001170803
000190 40 1e c9 3b 71 56 2c 3d 4b 9e 35 3c c2 e2 ff bb
       0.0061376393 0.042074624 0.011085103 -0.007809014
0001a0 ab 4f 49 bc 2e bc 1e 3d 36 32 b6 bb 39 39 a7 3c
       -0.012287061 0.03875368 -0.005560185 0.020413028
0001b0 ba 49 6a bc 2b c4 93 bc 43 9d dd bc d6 56 88 ba
       -0.014299804 -0.018037876 -0.027052527 -0.0010401856
0001c0 6f 18 17 bd 83 41 c8 3c 18 50 39 3c 73 55 39 3c
       -0.036888536 0.0244453 0.0113106 0.011311877
0001d0 5b 33 13 3b e3 fb 69 3c f0 48 a8 bc 3a 7e 8f bc
       0.002246103 0.014281246 -0.020542592 -0.017516244
0001e0 54 16 36 bc 01 31 ce 3c c1 8e e5 3c 3b 89 8e bc
       -0.011113722 0.025169851 0.028022172 -0.017399421
0001f0 6e 8f 53 3b b5 73 3e bc 2d 0f 71 bc a9 f7 9a 3c
       0.0032281536 -0.011624266 -0.014713091 0.018916922
000200 f6 36 33 3b 7b 0e ff 3c 3f 1f 89 3c b9 ad 97 3c
       0.0027345992 0.031134835 0.016738532 0.018515455
000210 d0 df 50 bc dd 17 ab 3b 71 49 4f bc a3 6f ed bc
       -0.012748674 0.0052213506 -0.012651787 -0.028983897
000220 81 5d 91 bc d1 72 4b bc f8 6f 8b bc 4c 36 ed bb
       -0.017744781 -0.012417511 -0.017021164 -0.0072391387
000230 af fc 14 3c 8b b2 e9 bc ad bf 5a ba ed 92 1e 3d
       0.009093448 -0.028527519 -0.0008344602 0.038714338
000240 65 9a af 3c 21 5a ae 3b 51 28 ff bb 6e b0 dd 3c
       0.021435926 0.005320803 -0.0077867885 0.027061667
000250 f6 13 9e bc 41 f5 16 bb 6e ff 57 3c 40 22 10 3c
       -0.019296627 -0.0023034366 0.013183458 0.008797228
000260 76 71 89 bc 9f af cb 3b ff 9d b7 b9 a9 8e f8 3c
       -0.016777735 0.006216004 -0.00035022196 0.030341463
000270 16 db 84 bc 4f fc b1 bb f3 b7 a6 3c 71 37 53 bd
       -0.01621775 -0.005431689 0.020351386 -0.051566545
000280 d0 79 0d bd 1e f8 0b bc c6 07 87 3c f6 03 81 3c
       -0.034539998 -0.0085430425 0.016483199 0.015748959
000290 af c8 2d bc 63 7c 17 bd 61 90 40 bc c5 db 15 bd
       -0.010606929 -0.03698386 -0.011753173 -0.03658654
0002a0 61 c7 c2 bc 7a 53 85 3c a6 59 db bc 53 31 c0 bc
       -0.023776712 0.016275156 -0.026776146 -0.02346102
0002b0 1d 32 7b bc e1 03 81 3c eb da 36 3c bd 3a a2 3b
       -0.015331772 0.01574892 0.011160593 0.00495085
0002c0 2a 41 a2 3b 76 9d 24 3c 9e 41 be 3b 18 85 24 3d
       0.004951616 0.010047307 0.005806162 0.04016599
0002d0 82 77 eb 38 c7 34 20 3d d1 8e 2d bb 42 42 1a bc
       0.00011227933 0.039112832 -0.002648283 -0.009415211
0002e0 0f 1e 1b 3c 6b 8c f3 bb 3b 45 d1 bc 5c 02 3d bc
       0.009467616 -0.0074325106 -0.025545707 -0.011536207
0002f0 1f 8e 38 bc 13 1e a5 3b fd ef 71 bb 9f 91 59 bc
       -0.011264353 0.0050389855 -0.0036916726 -0.013279348
000300 14 d5 5a ba 78 27 bd bb f8 80 87 bc d0 dc 5e 3c
       -0.0008347791 -0.0057725273 -0.01654099 0.0136024505
000310 f7 25 e2 bc 41 f6 04 3c 4d 16 22 3c fb 01 5c bb
       -0.027605994 0.008115352 0.009893012 -0.0033570516
000320 cd fb c2 3c e3 e3 9d 3c 60 09 f7 3c bc ba c3 bb
       0.023801709 0.019273704 0.030155838 -0.005973188
000330 66 c6 dc 3a 8a c7 b2 bc 0e 6f 8f 3c b9 41 b4 3a
       0.0016843795 -0.021823663 0.01750901 0.0013752497
000340 20 13 75 3c 9e 85 7f bb 76 03 46 3c dd 75 fb 3c
       0.014958173 -0.0038989554 0.012085786 0.03069585
000350 78 8b 62 bc 41 27 79 3c eb c5 19 bc b2 31 45 bc
       -0.013827197 0.015207113 -0.009385566 -0.012035774
000360 01 50 35 3c a3 a7 c9 3c af ba 8c bc 74 1d 42 ba
       0.011066438 0.024616068 -0.017178861 -0.00074049016
000370 0b 0b be bb 64 af 7b bb 66 c9 24 3c 92 f1 19 3d
       -0.0057996563 -0.0038404102 0.010057783 0.037583895
000380 48 35 eb 3c 18 b1 aa 3c 7b 5a ba bc c2 67 cd bc
       0.02871193 0.020836398 -0.022748223 -0.02507389
000390 09 ad 59 3c d4 d3 89 3c aa b8 44 bc 39 71 04 bc
       0.013285884 0.01682464 -0.012006918 -0.008083635
0003a0 35 87 d2 3c ad ae 58 bc 94 34 75 3c 2f 65 35 3c
       0.025699237 -0.01322524 0.014966149 0.011071487
0003b0 c6 be 79 3c d3 66 cd ba 67 b7 8c 3c 73 fa ba 3c
       0.015243238 -0.0015670903 0.017177297 0.022824502
0003c0 8a 3a f7 3b 28 4f a7 bc 1a b4 87 bc 3b 15 03 3d
       0.00754482 -0.020423487 -0.016565371 0.03200267
0003d0 31 ed 2d bc 4a ea d0 3c a5 ba c7 3c 2d ff 0e 3d
       -0.010615633 0.025502343 0.024380991 0.034911323
0003e0 c7 be 0e bb 7c 0f 28 bd 4b f8 bb bc a0 af ef 3c
       -0.0021781193 -0.041030392 -0.022945544 0.02925855
0003f0 e8 3d 44 3b f3 f5 4a 3c 63 d3 94 3a cb cb f0 3c
       0.0029944126 0.01238774 0.0011354502 0.029394051

transformer.h.0.attn.c_proj.bias f4 [32]
000000 02 96 94 ba 2d c4 44 3a 46 91 98 ba c6 62 c0 39
       -0.001133621 0.0007506039 -0.0011639975 0.00036694686
000010 30 ac 0a ba 48 82 6c 3a d7 08 9b 3a 7f 22 11 ba
       -0.000528994 0.0009022099 0.0011828196 -0.00055364514
000020 21 8b 90 ba 16 49 ed 39 e5 75 a8 3a 06 5e a2 ba
       -0.0011027792 0.00045258616 0.0012852518 -0.001238764
000030 45 f1 a2 3a cf 11 4c 3a 96 2d 8c ba 0a 2e 3e ba
       0.0012431523 0.0007784636 -0.0010694738 -0.0007254785
000040 a5 cc 9d ba ea 25 8c ba 74 b4 a0 ba 6a f5 1f ba
       -0.0012039138 -0.0010692452 -0.001226081 -0.0006101938
000050 89 9b a0 ba 5d 64 a7 3a 6c b9 a7 3a 85 2a 8c ba
       -0.0012253384 0.0012771 0.0012796349 -0.0010693824
000060 17 8d 8c 3a cb 00 9b ba 10 2a aa 3a bb 8f ab ba
       0.00107232 -0.0011825798 0.0012982506 -0.00130891
000070 5a e0 46 3a 26 bd 88 ba 56 d3 f3 b9 a4 b1 8c ba
       0.00075865316 -0.0010432347 -0.0004650603 -0.0010734093

transformer.h.0.attn.c_proj.weight f4 [32, 32]
000000 5d 63 85 3c 9f 22 7b bc 17 28 49 3b 47 7b 91 bc
       0.016282732 -0.0153280785 0.0030694061 -0.017758979
000010 4e 5b cd ba 99 fe be 3a a9 e2 65 bc 15 81 7b 3a
       -0.001566747 0.0014571726 -0.014031091 0.0009594125
000020 44 8e f4 bb ce 2b 88 bc 83 01 e4 bb db 9b b4 bb
       -0.0074632484 -0.01662245 -0.006958188 -0.0055117435
000030 a4 d6 2d 3c bd 9f 46 3c be 41 89 3c 14 3d 9c bc
       0.010610256 0.0121230455 0.016754981 -0.019072093
000040 6f 95 4b 3c 3d 79 4f bc 6c 89 a5 3b 93 52 8b bc
       0.012425764 -0.012663183 0.0050517824 -0.017007148
000050 4d 21 55 bc c5 ff a2 3c b5 71 60 bc 1a 68 9b bc
       -0.013008428 0.019897351 -0.013698985 -0.018970538
000060 1c 34 4a 3c b0 b0 5b ba 48 06 80 3c 20 8f a5 3a
       0.012341525 -0.00083805155 0.015627995 0.0012631156
000070 af c8 8b 3c a0 90 4d 3c bd 19 93 3b a2 29 8e bb
       0.017063467 0.012546688 0.004489152 -0.004338459
000080 72 69 0f 3b 5c a6 9c 3c 6e b8 84 bc 32 94 1c 3a
       0.0021882919 0.019122295 -0.016201224 0.00059730106
000090 0c d1 20 bc eb 0c 9f bc b8 cc 8e 3c 40 64 22 bc
       -0.009815466 -0.01941534 0.017431602 -0.009911597
0000a0 6a 0f 09 bb f6 98 81 3c 92 20 8a 3c 6f 79 00 bc
       -0.0020913729 0.015820008 0.016861234 -0.007841452
0000b0 15 e7 a8 bc 29 79 58 bb e4 c9 b8 bc 92 c1 b0 bb
       -0.020618001 -0.0033031201 -0.022557206 -0.005394169
0000c0 37 ee d4 bc 12 f3 2a bc 5a d7 82 bc 13 b7 25 bc
       -0.025992496 -0.010433929 -0.015971828 -0.010114449
0000d0 4e 52 79 bb f8 93 e0 3b 7e fd b6 bb 80 09 47 3b
       -0.0038043442 0.0068535767 -0.005584418 0.0030370653
0000e0 71 00 1a bc ea f9 1a bc 89 98 2e bc c1 a0 1e bc
       -0.009399519 -0.009458998 -0.010656484 -0.009681881
0000f0 dd a8 05 3c 57 a0 dc bb 2f 26 6a 3b 34 ad e0 3a
       0.008157936 -0.006732981 0.0035728326 0.0017141462
000100 73 5d d1 bc b7 0f cf bb bb 74 79 bb 09 3e e8 bc
       -0.025557255 -0.006319012 -0.0038063962 -0.028349893
000110 37 af 84 3b d2 bf 26 3c 70 c5 28 3c ce bc 97 bb
       0.0040492075 0.010177569 0.010300979 -0.0046306616
000120 38 8c 4b 3c d1 73 b8 3c 29 fa 3d bb b0 1b 6e bc
       0.0124235675 0.022516163 -0.0028988218 -0.014532968
000130 59 d7 06 ba b9 c7 f3 bc 16 f7 5b bb 26 a3 82 bc
       -0.00051437836 -0.029758321 -0.0033564023 -0.015946936
000140 90 de 03 3b 68 b3 18 3c 63 8a 54 bc 77 94 c7 3b
       0.0020121671 0.0093201175 -0.012972447 0.0060906964
000150 83 84 00 bc 96 9d 84 3b 15 0c af 3b 97 42 ae 3a
       -0.007844093 0.004047106 0.0053420165 0.0013294992
000160 43 76 cd bc 95 df b0 3b f0 8c 9f bc 90 a0 64 bc
       -0.025080806 0.005397747 -0.019476384 -0.013954297
000170 38 c7 55 bc a2 26 18 bc 8b f6 89 3c 26 10 5c 3c
       -0.013047986 -0.0092865545 0.016841194 0.013431584
000180 af eb 82 bc 75 87 c8 3a 4d ea 9e bc 11 31 81 3b
       -0.015981523 0.0015299158 -0.019398833 0.0039426167
000190 56 7d 6c 3c 5b 98 a1 3c c2 86 47 3b d0 70 cb bb
       0.014434179 0.019725969 0.0030445312 -0.0062085167
0001a0 bf 51 39 ba b0 c4 6b bc ee 1e 62 bb 53 b4 c8 3c
       -0.0007069371 -0.014390156 -0.0034503299 0.024500048
0001b0 42 47 07 3b a4 23 5c 3c 00 d2 59 bc 16 ed 04 bc
       0.0020641838 0.013436232 -0.013294697 -0.008113166
0001c0 f4 95 4f 3c 7f f3 d5 3c dd 9b 55 bc 87 2d ca 3b
       0.012670029 0.026117085 -0.013037649 0.006169978
0001d0 1c 7e 24 bc 1b 43 91 3c a2 82 0c bc 71 36 b5 bc
       -0.010039832 0.017732194 -0.008576067 -0.022120686
0001e0 87 86 1f 3c 38 c8 79 3c 98 33 40 3c c7 06 93 bb
       0.009736664 0.01524549 0.011731051 -0.004486892
0001f0 d5 5d 5d 3b 42 89 64 bc 71 97 b3 bc 9f 75 ab 3b
       0.0033777852 -0.01394874 -0.021922799 0.0052325274
000200 76 50 b1 bc 5b d3 bf bb ce 08 75 bb 80 17 ca 3c
       -0.021644812 -0.005854053 -0.0037389281 0.024669409
000210 fc fa 31 3c 69 8f 82 bb df 1f 10 bd d4 67 30 3c
       0.010863062 -0.003984381 -0.035186645 0.010766942
000220 9f 1e 7d 3c 40 40 79 3c 59 cd c3 3a 02 52 17 bb
       0.015449195 0.015213072 0.0014938518 -0.0023089652
000230 cb bd da bc 92 c7 06 3c 55 51 62 3c 37 85 da ba
       -0.026701828 0.008226292 0.013813336 -0.0016671781
000240 fb 55 1d 3c b9 d1 f6 3a ec b9 a6 3b 12 56 84 3c
       0.009603019 0.0018830813 0.0050880816 0.016154323
000250 20 37 96 3c f3 21 9c bb 8f 01 6e 3c 3c 47 60 bc
       0.018336833 -0.0047647892 0.014526739 -0.013688859
000260 89 d8 b7 ba b3 a1 f5 bc f5 52 6e 3c 86 63 6b bc
       -0.0014026324 -0.02998433 0.014546146 -0.01436699
000270 a2 c6 ef bb 39 a3 2a 3c ac 24 94 bb b4 9f f0 bb
       -0.00731738 0.010414892 -0.004520973 -0.007343257
000280 81 b8 c1 bc 60 e6 93 bb 15 19 2c 3c 01 9d 4d 3c
       -0.023647549 -0.004513547 0.010504027 0.01254964
000290 38 81 a0 bb 54 6f d7 3b dc fc ba ba e9 e8 9f bb
       -0.0048982166 0.0065745506 -0.0014266032 -0.00488006
0002a0 8c c5 ba 3c 8f 34 07 bc b2 60 c1 bc a0 1c e6 3a
       0.022799276 -0.008252277 -0.023605678 0.0017556138
0002b0 5d e9 3a bb 5e af cd 3b c7 c2 95 bb 27 b9 2c 3b
       -0.0028520443 0.006277009 -0.0045703384 0.0026355477
0002c0 d3 a3 10 bb f8 f7 95 3b ad f8 d4 bb 1a 37 58 3c
       -0.0022070303 0.0045766793 -0.006499371 0.013196731
0002d0 52 6c b2 3c ac 47 e8 3c a3 6c 1c bd 8d 50 0d bc
       0.021780167 0.028354488 -0.03818954 -0.008625162
0002e0 26 31 d9 3b 3d 79 7d 3c d1 c3 c6 3b 30 c9 ad 3a
       0.0066281734 0.0154708 0.0060658236 0.0013258811
0002f0 61 c4 84 3c 0e 33 9a bc 98 6d 64 bb b7 f9 c7 bc
       0.016206922 -0.018823173 -0.0034855362 -0.024411066
000300 9e 4c a6 bc e6 13 b4 3b d8 09 68 bc 12 0d c3 bc
       -0.020300206 0.005495536 -0.014162503 -0.023809943
000310 8e 79 80 bc 5f 47 0f 3c e7 64 c4 ba a0 8a bf bb
       -0.015682962 0.008745044 -0.0014983685 -0.005845383
000320 3c 7f 00 3c 85 24 2c 3d a1 8b 13 3b 06 03 57 3c
       0.007842835 0.042027015 0.0022513645 0.013123279
000330 cb 69 04 bd 6d af cb 3c d6 98 44 bc 9f 7a a6 3c
       -0.032327455 0.024863923 -0.01199933 0.020322142
000340 01 87 e9 3b 86 8d 3a 3b 06 ec 4b 3c 08 0c ed 3a
       0.0071266894 0.0028465702 0.012446409 0.0018085251
000350 98 03 e5 bb d1 da 32 bc fd 36 bb 3c bf 4c 46 3c
       -0.006988954 -0.010916428 0.022853369 0.012103259
000360 4e d8 19 3c fe 65 92 3c 02 93 d1 3b e6 bd 4a bc
       0.00938995 0.0178709 0.0063956985 -0.012374377
000370 6e fd 09 3c b0 07 a4 3c 16 26 4b 3b 1d 5a 58 3c
       0.008422239 0.020023197 0.0030998043 0.013205078
000380 d6 80 9b bc 29 91 0c 3c 3f 93 0b bb b6 14 52 bc
       -0.018982332 0.008579531 -0.0021297482 -0.012822321
000390 44 a8 37 3b 84 6b ba 3c 57 54 03 3d 68 7c a3 bc
       0.0028023878 0.022756346 0.032062855 -0.019956782
0003a0 3c 7a d2 3b 66 7e 1b ba 04 8e 1a 3c d1 e0 b1 3c
       0.006423263 -0.00059316156 0.009433273 0.021713646
0003b0 80 c1 a8 3c 3c e9 70 bc fe 5f ee 3b 2d f1 ad 3b
       0.02060008 -0.014704045 0.0072746268 0.0053082914
0003c0 86 b1 2f 3c 6d a1 ae bc 9c 14 20 3c dc b8 8a 3c
       0.010723477 -0.021317208 0.009770539 0.016933851
0003d0 5e 77 a4 3b 6f 65 c1 bb 14 c2 06 3c 57 e0 42 3c
       0.0050191125 -0.0059019844 0.008224983 0.011894307
0003e0 2a ea 50 3c 09 dc 0e 3b d2 76 89 bc 64 cb 3c 3c
       0.012751142 0.0021798632 -0.01678029 0.0115231015
0003f0 1d 06 c0 3b 5b d0 21 bc 8e b6 25 3c b0 ab 07 3c
       0.0058601038 -0.009876336 0.010114325 0.00828068

transformer.h.0.ln_1.bias f4 [32]
000000 2e 46 6c ba 03 38 93 3a 11 af 7c ba 3a 38 a5 b9
       -0.0009013143 0.0011231903 -0.0009639124 -0.00031513144
000010 2c 3f 23 ba 16 c4 0e 3a 08 9e 32 3a 2e f2 8d 3a
       -0.000622737 0.0005446089 0.00068137096 0.0010829621
000020 17 8a ab 3a e0 2f 8f 3a db d3 98 3a b6 29 7c 3a
       0.0013087419 0.0010924302 0.0011659818 0.00096192525
000030 fb f9 8f ba c9 a4 a6 3a 60 3a 97 ba 31 ef 81 ba
       -0.0010984534 0.0012713905 -0.0011537783 -0.0009913204
000040 bb ac 93 3a 37 f6 a5 ba 07 5d a3 ba 7c b3 3b ba
       0.0011266688 -0.0012661879 -0.0012463637 -0.0007160229
000050 21 1a 9d ba e5 1e 92 b8 90 fc a5 ba 80 25 9c ba
       -0.0011985936 -6.967577e-05 -0.001266377 -0.0011913031
000060 c1 3b ae 39 a2 e0 8b ba 26 e5 96 ba d1 40 9c 3a
       0.00033232386 -0.0010671804 -0.0011512383 0.0011921172
000070 e5 38 7e ba 79 36 a2 3a bc eb 14 ba 48 ff 9c 3a
       -0.0009697809 0.0012375853 -0.0005680879 0.0011977935

transformer.h.0.ln_1.weight f4 [32]
000000 cb b1 7f 3f 1b de 7f 3f f5 b8 7f 3f 2d f7 7f 3f
       0.99880666 0.9994828 0.998916 0.99986535
000010 f4 01 80 3f 7b db 7f 3f 27 1f 80 3f 76 b8 7f 3f
       1.0000596 0.99944276 1.0009507 0.9989084
000020 97 29 80 3f 3f bb 7f 3f 55 21 80 3f 0c 19 80 3f
       1.0012692 0.9989509 1.0010172 1.0007644
000030 6a d1 7f 3f a5 23 80 3f b6 26 80 3f 03 b4 7f 3f
       0.99928916 1.0010878 1.0011814 0.9988405
000040 81 09 80 3f 54 28 80 3f 11 dd 7f 3f e2 09 80 3f
       1.00029 1.0012307 0.99946696 1.0003016
000050 cf 04 80 3f ef 07 80 3f c5 28 80 3f 0d b6 7f 3f
       1.0001467 1.0002421 1.0012442 0.9988716
000060 52 fd 7f 3f c4 be 7f 3f 86 19 80 3f 8c b1 7f 3f
       0.9999591 0.9990046 1.0007789 0.9988029
000070 fe b3 7f 3f b1 11 80 3f 64 d3 7f 3f 68 1e 80 3f
       0.9988402 1.0005399 0.9993193 1.0009279

transformer.h.0.ln_2.bias f4 [32]
000000 93 fa 7c 39 ff cd 9c ba dd 64 80 3a ba 64 a4 ba
       0.00024125939 -0.0011963247 0.0009795685 -0.0012542226
000010 c4 af 9b 3a 5d 76 9d 3a 7a 5a 87 3a 1e 26 a2 3a
       0.0011877944 0.0012013424 0.0010326647 0.0012370979
000020 9d ee 91 ba 9e 3b a9 ba 69 0b 93 3a 69 51 a2 ba
       -0.0011133734 -0.0012911444 0.001121861 -0.0012383881
000030 3f a1 0a 3a 08 00 a1 3a da b5 a5 ba c8 44 9d ba
       0.000528831 0.0012283335 -0.0012642697 -0.0011998648
000040 fc dd a8 ba d2 0e f7 b9 87 64 64 ba 3a fe aa 3a
       -0.0012883539 -0.00047122553 -0.00087124895 0.0013045736
000050 63 07 93 ba 9c 24 56 3a 2a 7c bc b9 a8 02 e3 39
       -0.0011217411 0.00081689074 -0.00035950664 0.00043298793
000060 72 aa ab 3a 4b 31 30 3a c7 d8 90 ba ab 2f af ba
       0.0013097061 0.00067212124 -0.0011050933 -0.0013365647
000070 ce 04 ad ba 22 a6 7d b9 22 69 a0 ba fc 9d 7c ba
       -0.0013200284 -0.0002418985 -0.0012238363 -0.00096365786

transformer.h.0.ln_2.weight f4 [32]
000000 8d 24 80 3f 00 1f 80 3f 26 22 80 3f fb 24 80 3f
       1.0011154 1.000946 1.0010421 1.0011286
000010 a9 ba 7f 3f 0f 02 80 3f 35 bd 7f 3f ba ef 7f 3f
       0.99894196 1.0000628 0.9989808 0.9997517
000020 18 1a 80 3f 7d 2b 80 3f 63 27 80 3f c3 02 80 3f
       1.0007963 1.0013272 1.001202 1.0000843
000030 bf 23 80 3f 6c 29 80 3f e3 29 80 3f 19 23 80 3f
       1.0010909 1.0012641 1.0012783 1.0010711
000040 29 bc 7f 3f 02 1a 80 3f d1 b5 7f 3f 19 2b 80 3f
       0.99896485 1.0007937 0.99886805 1.0013152
000050 bd 1f 80 3f 87 ef 7f 3f 06 15 80 3f 30 28 80 3f
       1.0009686 0.99974865 1.0006416 1.0012264
000060 bd 29 80 3f 44 25 80 3f d5 08 80 3f 5f 20 80 3f
       1.0012738 1.0011373 1.0002695 1.0009879
000070 29 2a 80 3f 8b 18 80 3f 24 fd 7f 3f 06 e1 7f 3f
       1.0012866 1.000749 0.99995637 0.99952734

transformer.h.0.mlp.c_fc.bias f4 [512]
000000 44 66 9f 3a 2e 45 fa 39 29 4d 90 ba 3f d1 8a 3a
       0.0012161215 0.0004773526 -0.0011009324 0.0010590925
000010 ae b0 92 3a 76 74 9d 3a 81 4c 72 3a 71 bb 91 3a
       0.0011191571 0.0012012857 0.00092429674 0.0011118484
000020 94 c9 9e 3a 04 8c ac 3a 57 9b a3 ba ce 33 99 ba
       0.0012114518 0.0013164287 -0.0012482208 -0.0011688413
000030 5a 16 77 3a b6 e3 a1 ba e3 01 9c 3a bc fb a0 3a
       0.0009425633 -0.0012351188 0.0011902418 0.0012282054
000040 08 bb 4f ba 32 ac a7 3a 6b 81 89 3a 52 c4 8a ba
       -0.0007924293 0.0012792407 0.001049084 -0.0010587072
000050 7a c1 9d 3a 48 48 6d 3a b9 f9 a3 ba 7e 37 82 3a
       0.001203581 0.0009051603 -0.0012510336 0.0009934751
000060 fd 17 ac 3a cf 73 a1 3a 31 25 8d 3a 91 0c 9e ba
       0.0013129708 0.0012317839 0.001076853 -0.0012058188
000070 12 9f e4 b9 29 e1 91 3a 9c 37 79 3a a4 1f 8b b7
       -0.00043606065 0.0011129725 0.00095068826 -1.6584825e-05
000080 58 7f 9f 3a 68 dd a1 ba 64 9c 19 3a 0e 55 9f 3a
       0.0012168689 -0.0012349309 0.0005859791 0.0012156086
000090 37 1b a6 ba 69 74 8c ba 63 79 a9 3a 58 73 6d ba
       -0.0012672906 -0.0010715845 0.0012929853 -0.000905802
0000a0 da 37 a4 ba 9b db 85 3a e0 95 9f 3a 6f 2d 45 3a
       -0.0012528852 0.0010212542 0.0012175404 0.0007521724
0000b0 ba e6 a3 3a 44 e8 a8 3a e8 b9 02 ba e8 25 aa ba
       0.0012504675 0.0012886603 -0.00049868086 -0.0012981268
0000c0 c6 53 7c 39 1a bb 6f 3a e0 06 af 3a 46 fe 85 b9
       0.00024063801 0.0009145007 0.0013353489 -0.00025557185
0000d0 f1 7d 6c 3a 1e cb 97 3a 30 52 b0 ba 18 a6 a6 ba
       0.0009021452 0.0011580919 -0.0013452228 -0.0012714295
0000e0 e2 77 a3 39 fc bf 82 ba d0 95 99 ba c1 e2 36 ba
       0.00031179102 -0.0009975429 -0.0011717621 -0.0006976538
0000f0 ec 00 a6 ba 64 d7 30 ba c6 94 8d ba d2 74 60 b9
       -0.001266507 -0.0006745963 -0.0010801784 -0.00021405824
000100 dc c7 ac ba 22 f9 90 3a 6e 8b 89 ba 98 fa 54 ba
       -0.0013182121 0.0011060575 -0.0010493824 -0.00081244996
000110 ba 26 8c ba 2c e4 a4 ba a7 38 92 38 9e d5 aa 3a
       -0.0010692694 -0.0012580208 6.972375e-05 0.0013033634
000120 15 86 a6 ba 37 34 7a ba d6 15 9b 3a fb ff 9d ba
       -0.0012704754 -0.0009544524 0.0011832069 -0.0012054438
000130 b8 b3 a6 ba d0 e6 a8 3a bc b9 9f ba 2a 6d a6 3a
       -0.0012718355 0.001288617 -0.001218609 0.0012697328
000140 ba f0 81 3a ed 8b 89 3a 95 e3 8a 3a b7 fc 99 ba
       0.0009913661 0.0010493972 0.0010596389 -0.0011748289
000150 8a db 9a ba e1 c3 2c ba 27 39 8d ba c4 89 84 ba
       -0.0011814695 -0.00065904675 -0.0010774479 -0.0010111858
000160 23 54 8d 3a 54 ce b3 39 66 61 9c b9 94 59 a4 3a
       0.0010782521 0.00034295267 -0.00029827206 0.0012538903
000170 0a 99 3c ba de 1d a2 3a 6c 87 cd b8 be 7c 88 ba
       -0.00071944355 0.001236852 -9.800386e-05 -0.0010413153
000180 50 0a 9b ba 84 22 ad 3a 56 47 94 3a 86 b4 88 3a
       -0.0011828635 0.0013209139 0.0011312764 0.0010429777
000190 b8 7a a4 ba 79 21 a5 3a c4 85 8f ba 3c 6c 5d ba
       -0.001254878 0.0012598477 -0.00109499 -0.0008446609
0001a0 51 af 96 ba b5 ba 30 3a c8 14 9b 3a b7 a8 7c 3a
       -0.001149634 0.00067416887 0.0011831755 0.00096381776
0001b0 c5 1b ac ba a4 f4 a6 3a 30 b0 a8 ba 2a 46 a3 ba
       -0.0013130835 0.0012737704 -0.0012869891 -0.0012456824
0001c0 43 c7 a4 ba 7b cb 93 3a b4 ec a7 ba 14 ef 12 3a
       -0.0012571592 0.0011275852 -0.0012811632 0.00056050834
0001d0 44 45 94 ba 4c b2 82 b7 9f 5d 14 ba e6 f3 90 ba
       -0.0011312147 -1.5580234e-05 -0.00056597026 -0.0011059016
0001e0 f5 88 a1 ba fc 02 8d 3a 2d 4e 45 3a 57 19 a6 b9
       -0.0012324142 0.0010758336 0.0007526603 -0.00031680867
0001f0 ea 8a a1 ba 67 ec 9a ba c3 3c 80 ba 98 3f a3 ba
       -0.0012324725 -0.0011819721 -0.0009783733 -0.0012454866
000200 da 4b ac 3a 35 e2 7a ba 92 d5 aa ba 7c 67 62 ba
       0.0013145164 -0.00095704506 -0.001303362 -0.0008636636
000210 5d 35 94 3a 4a fb 86 3a 26 2a 20 b9 29 58 a8 3a
       0.0011307407 0.0010298279 -0.0001527449 0.0012843657
000220 ac 8e f3 b9 0a e6 aa ba 74 63 ae 3a c1 13 a9 3a
       -0.0004645487 -0.0013038528 0.0013304786 0.0012899564
000230 80 b0 96 ba fe 2a a3 3a 29 0f b8 39 1f 6c 9d 3a
       -0.0011496693 0.0012448726 0.0003510651 0.0012010372
000240 4b 2e 9c 3a 96 8a c1 b8 ad 1a 58 3a 51 d8 a4 3a
       0.0011915652 -9.228771e-05 0.0008243721 0.0012576674
000250 71 cc 97 3a ab e8 9e 3a 90 32 aa 3a a3 f3 ea 39
       0.0011581314 0.0012123784 0.001298504 0.00044813482
000260 0c 74 ac 3a 1b 58 a0 3a 40 f8 aa ba 68 8b 94 3a
       0.0013157143 0.0012233289 -0.0013043955 0.001133305
000270 95 71 8b 3a c8 f4 8e ba 27 29 a9 ba f8 a5 99 3a
       0.0010638708 -0.0010906691 -0.0012905941 0.0011722436
000280 f9 ef a2 ba ec 3e ae ba 8d 27 a3 3a 3c 4d aa 3a
       -0.0012431137 -0.0013293899 0.00124477 0.0012992988
000290 2a 77 a6 ba 41 0b 5c 3a 39 bb a7 3a d6 19 96 3a
       -0.0012700309 0.0008394011 0.0012796886 0.0011451792
0002a0 61 7e a2 ba dd 3f a4 ba 7a 89 8a ba 1a 4c a1 3a
       -0.0012397283 -0.001253124 -0.0010569536 0.0012306005
0002b0 c9 5b 8c 3a e2 b3 98 3a d0 ff 9f 3a 88 73 9c 3a
       0.0010708506 0.0011650289 0.0012206975 0.0011936286
0002c0 b2 a6 a6 3a 10 3e 92 3a f1 0b 99 3a c6 a3 9b ba
       0.0012714474 0.0011157412 0.0011676532 -0.001187437
0002d0 8b 71 d6 39 0a cf a2 3a 50 2f 3e b9 4a f1 c2 b8
       0.00040901857 0.0012421322 -0.00018137437 -9.2955845e-05
0002e0 15 e5 99 ba 9b 73 c7 39 16 69 39 3a ce 44 83 3a
       -0.0011741245 0.0003804237 0.0007072849 0.0010015012
0002f0 cb fc 9e 3a a5 8b aa 3a 40 08 9b ba 2c 5e 9b 3a
       0.0012129782 0.0013011588 -0.001182802 0.0011853627
000300 9d 40 8c 3a 67 ae ac ba e8 f5 e3 b9 41 06 ac ba
       0.0010700409 -0.0013174535 -0.00043480028 -0.0013124422
000310 34 d4 49 b8 c1 06 a2 ba 52 8e 8b 3a 15 0c 92 3a
       -4.8119764e-05 -0.0012361632 0.0010647273 0.0011142517
000320 dd 1b a1 ba aa f6 9a 3a 7d e7 96 ba ef 16 a4 3a
       -0.0012291629 0.0011822779 -0.0011513081 0.0012519042
000330 62 a4 ae 3a 88 1f a5 ba 92 07 9f ba 0c 67 92 ba
       0.0013324136 -0.0012597898 -0.0012132993 -0.0011169626
000340 14 bb 9a 3a b5 b7 3b 3a c4 d8 aa ba 35 c3 33 ba
       0.0011805021 0.00071608584 -0.0013034572 -0.0006857396
000350 92 82 b0 3a 33 88 aa 3a b2 80 38 3a 7e 94 a9 3a
       0.0013466647 0.0013010561 0.000703822 0.0012937931
000360 39 5c a2 3a c3 b0 9f 3a 46 f8 9d 3a 5c 7c ac 3a
       0.0012387104 0.0012183416 0.0012052141 0.001315962
000370 7e 92 a4 39 f2 5c 3d ba 40 d0 0d ba 67 5e a6 3a
       0.00031389663 -0.0007223628 -0.0005409755 0.0012692929
000380 06 85 a0 3a 16 34 9f ba 8b a9 91 3a 79 f1 88 ba
       0.0012246675 -0.001214626 0.001111315 -0.0010447941
000390 c8 c3 8e 3a 02 c6 a5 ba 68 c3 8b b8 1e 2c ac 3a
       0.0010892088 -0.0012647512 -6.664434e-05 0.0013135707
0003a0 76 2f 9a ba 1c 0a 98 3a 84 f5 a8 ba ae b9 a3 3a
       -0.0011763412 0.0011599693 -0.0012890552 0.001249125
0003b0 7b 53 a6 3a 48 aa aa 3a 67 87 a8 3a 6f 14 81 ba
       0.0012689674 0.0013020718 0.0012857736 -0.0009848009
0003c0 83 dc 7e 3a 72 7e 90 39 52 41 9f ba 7f dc 74 3a
       0.000972219 0.0002756003 -0.0012150204 0.0009340718
0003d0 91 70 a4 ba 80 cd a8 3a be 62 93 3a ac 07 92 3a
       -0.0012545754 0.0012878627 0.0011244637 0.0011141202
0003e0 80 c0 63 ba f8 a9 a6 3a aa 3d 9f 3a ed 1f 95 3a
       -0.00086880475 0.001271545 0.0012149115 0.0011377312
0003f0 bc 4a 80 39 eb c2 50 38 ad df bf b9 af ed 6e 3a
       0.00024469744 4.9772596e-05 -0.0003659701 0.0009114397

transformer.h.0.mlp.c_fc.weight f4 [32, 512]
000000 29 93 1b 3b 47 d6 e3 3c e2 f6 f4 3c 0c a7 b3 bc
       0.0023738837 0.027812136 0.02990288 -0.02193024
000010 04 93 a5 3c 73 73 30 3c 20 72 b9 bc 16 11 5e bb
       0.020211704 0.010769713 -0.022637427 -0.0033884696
000020 83 18 85 bc bc 5c 19 3c f9 ad b9 ba 86 92 28 3d
       -0.01624704 0.0093604885 -0.0014166228 0.04115536
000030 c1 e3 66 bb c0 a1 85 bc f3 dc 85 3c 1c 0b d4 bc
       -0.0035230967 -0.01631248 0.016340708 -0.025884204
000040 39 aa 71 bb d6 66 56 bb 66 f2 87 bc 1d 2e eb 3b
       -0.0036875142 -0.0032715104 -0.016595077 0.007177128
000050 77 16 04 bc 78 65 a1 bc 76 bf b0 bc 59 03 b3 3b
       -0.008061997 -0.019701704 -0.02157567 0.0054630456
000060 c5 46 b8 3c 03 4d 1f bc 4f 7a 1d 3d 27 42 a2 3c
       0.022494683 -0.009722951 0.03844672 0.019806935
000070 cc 65 e8 bb 79 11 6f 3c 4f 93 b7 3a ef 40 01 bc
       -0.0070922133 0.014591568 0.0014005693 -0.0078890165
000080 af 43 63 bb 5c f6 77 bb cf 24 07 bd 7f e7 08 3c
       -0.0034677794 -0.003783605 -0.032994088 0.008355974
000090 3b e4 de bc 07 b6 75 bc ee 91 9f bc e4 3b bf bc
       -0.027208438 -0.014997012 -0.019478764 -0.023343988
0000a0 6b 39 f9 3b 45 08 a1 bc 0d ba 87 3b 40 fa 11 3c
       0.0076057217 -0.019657264 0.004142052 0.008909762
0000b0 5a 38 b8 bb 22 f6 97 bb ab 62 9c bc d0 60 d5 3c
       -0.005621952 -0.0046374956 -0.019090017 0.02604714
0000c0 63 bd 47 3b dd a9 ca 3c d6 98 bc bc 5c 36 bb ba
       0.0030477874 0.0247392 -0.023022097 -0.0014283168
0000d0 9d 82 a2 bb 1c 83 5d bc ac 7a 58 3c 0c e0 4c bc
       -0.004959418 -0.013520028 0.013212841 -0.012504589
0000e0 a1 97 01 ba 02 60 34 bd e1 87 aa 3c 41 e5 81 bb
       -0.0004943554 -0.044036873 0.020816745 -0.003964097
0000f0 52 40 1a 3c 98 fc 49 3c 6f e1 5f bc cd 10 ac 3b
       0.009414749 0.012328289 -0.013664587 0.0052510262
000100 e1 2c 48 3d 26 7a a3 bb 5f c6 85 bc 0a 05 c5 bb
       0.048870925 -0.0049889265 -0.016329942 -0.0060125636
000110 29 96 28 bc 58 31 48 bc b9 e8 c9 3c 2f 24 13 bc
       -0.010289707 -0.012218796 0.024647104 -0.008980795
000120 b3 07 23 3c cc 43 b1 3c 1b 2b 09 3d 78 13 3c 3b
       0.009950566 0.021638773 0.033488374 0.0028698128
000130 cd 05 a1 bc b1 14 b8 bb 10 03 a6 3c 80 fc d0 3b
       -0.019656086 -0.005617701 0.020265132 0.0063777566
000140 73 75 85 bc 95 09 90 bc 9e d2 1a bd 33 7d 82 bc
       -0.016291356 -0.017582694 -0.037798516 -0.01592884
000150 be 71 27 3d 8d 12 8a bb 62 f6 cb bc 7d 6f 42 3b
       0.040879957 -0.004213637 -0.024897758 0.0029668503
000160 86 4b fe bb 2d 5d d7 3c b2 d0 ca bc 81 fa 98 3b
       -0.007760468 0.026289547 -0.024757717 0.0046685343
000170 04 78 84 bc 8d 11 ef bb 6d 2f f3 3c 85 94 15 3d
       -0.01617051 -0.0072957934 0.0296857 0.036518592
000180 58 b0 9a 3c d4 51 71 bb aa 36 56 bc 71 33 9e 3c
       0.018882915 -0.0036822455 -0.013074556 0.019311639
000190 6c 08 99 bb d8 7f e6 bc 74 5f be 3c d2 68 9e 3c
       -0.0046701934 -0.028137133 0.023238875 0.019337092
0001a0 30 84 b9 3b 17 7a c9 bb e5 0d 0b 3d 82 55 62 3c
       0.00566151 -0.0061485874 0.033948798 0.013814332
0001b0 1f 58 3c bd e4 55 95 bc 53 58 39 3c 54 4f 94 3b
       -0.045982476 -0.018229432 0.011312562 0.004526058
0001c0 03 74 ac bc 49 e8 e2 3c 95 2f d2 bc bf f8 26 3d
       -0.021051412 0.027698653 -0.025657455 0.040764567
0001d0 ff 49 e7 3b 70 08 5a bb 03 c7 9b bb ae 02 3c bc
       0.0070583816 -0.003326919 -0.0047539487 -0.011475248
0001e0 f8 17 10 bc db 8c 9d 3c aa 8b 49 bc 7e d9 6d bc
       -0.008794777 0.019232204 -0.012301365 -0.014517186
0001f0 7e 1d 18 3d fc af 53 3a bf bf 15 bc 3f 50 c7 3c
       0.0371375 0.0008075235 -0.009139954 0.024330257
000200 0c 92 5d 3c 2d ed fa bc de b1 d7 3b 8e b7 18 bc
       0.01352359 -0.030630672 0.0065824827 -0.009321107
000210 82 4f 22 bc a1 e8 82 3d 13 26 9e ba 7b d1 17 bc
       -0.009906651 0.06392027 -0.001206579 -0.009266253
000220 bf 4a 95 bc 6f 97 d3 3b 9d 04 84 3c 63 07 05 bc
       -0.018224118 0.0064572613 0.016115481 -0.008119437
000230 b5 87 78 bc a3 ce 98 bc a1 3f a9 bb ea 26 c6 bc
       -0.015169074 -0.01865322 -0.005165056 -0.024188478
000240 9f d5 e8 3c e8 30 77 3c e7 ce 98 3c ef 1e 76 bc
       0.028422175 0.015087344 0.018653346 -0.015022024
000250 9e f9 21 bd 1a 3e 8d bc 34 94 2d 3c 95 44 08 bc
       -0.039544694 -0.017241526 0.010594416 -0.0083171325
000260 c1 5a 91 bc 96 95 b1 3c c5 3b 33 3c 15 f8 4f bc
       -0.01774347 0.021677773 0.010939543 -0.012693425
000270 68 37 c4 b9 65 cb a7 bc 75 50 8f ba 55 45 01 3c
       -0.00037425314 -0.020482728 -0.0010934012 0.007890065
000280 8f b4 9d bc 6a 71 82 3c e6 ff 95 bb 4f ec 7f bb
       -0.019251136 0.01592322 -0.0045776246 -0.0039050763
000290 84 f9 c3 bb 6a 7d ac bc e6 7e 83 3c be 17 34 3c
       -0.0059806723 -0.021055896 0.01605172 0.010991989
0002a0 c3 fb 37 bc aa 5e 5d 3b ec 4d c2 bc 72 fc 0d 3d
       -0.011229458 0.0033778348 -0.023718797 0.03466458
0002b0 1c 6d 1f bd 85 09 51 bc f9 42 45 3c 8b 53 7c bc
       -0.038922414 -0.012758617 0.012039893 -0.015400778
0002c0 05 45 d1 bb 95 45 99 3c 4e f4 97 bc a8 b2 60 3c
       -0.0063864016 0.018709937 -0.01854911 0.01371447
0002d0 d9 45 8e bc c8 c6 47 3c 66 8a 0b 3a e4 64 0a bc
       -0.01736729 0.012193389 0.0005323052 -0.008446906
0002e0 e8 45 b4 3b 01 b9 e9 bb 65 34 00 bb da 53 a5 bb
       0.0055014975 -0.00713265 -0.001956248 -0.0050453963
0002f0 51 30 6c 3c bb bb f4 3c 78 a7 4e 3b 24 3a 84 bb
       0.014415816 0.029874673 0.0031532925 -0.004035251
000300 e6 39 d1 bb 3b 07 bd 3b d3 e8 c6 bb 63 3e b1 3c
       -0.006385076 0.005768684 -0.0060702353 0.021636194
000310 a9 c2 ab bc b5 13 c6 3b a5 bb a2 bc 5f 96 67 bc
       -0.020966845 0.0060448297 -0.019864867 -0.014134972
000320 e4 88 19 bc 93 1a 0e ba a8 4e fa bb 27 49 83 3c
       -0.009371016 -0.000542083 -0.007638771 0.016026093
000330 95 67 3a bc 4b 37 f8 3c 32 c9 c0 bc 47 e4 70 3d
       -0.011377235 0.030299803 -0.023533437 0.058811452
000340 eb 36 94 bc 6e 2b ae bb f7 c9 09 bb 52 d8 0f bc
       -0.018092593 -0.005315236 -0.0021024921 -0.008779602
000350 97 b7 25 bd 2c 65 8f bb c5 bc 35 bc 55 e6 b4 ba
       -0.040458288 -0.0043760743 -0.011092369 -0.0013801554
000360 4a 67 15 3a c6 8b 03 3c 75 28 63 3b 13 2a 50 bc
       0.000569929 0.00802893 0.0034661565 -0.012705344
000370 ae 42 8e 3c fc 58 45 3c 2c f8 da bb 57 b7 e2 3c
       0.01736578 0.012045141 -0.0066824164 0.027675314
000380 85 b0 7e bc 66 22 10 bc ae 75 80 3c e3 ba 9d bb
       -0.015545015 -0.008797264 0.015681114 -0.0048135384
000390 d9 18 3b ba a4 f2 1b bc 0e 9a 90 b9 be 48 e9 ba
       -0.00071371865 -0.009518299 -0.000275806 -0.0017798168
0003a0 f4 d0 17 bd a9 fa 46 3c 80 ed cb 3c 6e 0e 19 bc
       -0.037064508 0.012144723 0.024893522 -0.009341819
0003b0 b6 da 99 ba 2e 25 5c 3c 18 4d 0a bd 62 64 50 3b
       -0.0011738155 0.013436599 -0.03376493 0.0031798114
0003c0 f6 c3 73 bc bb ce 20 3d ec 0b c5 3c c3 06 23 bc
       -0.014878264 0.039259654 0.024053536 -0.009950343
0003d0 b5 7b d2 3b 66 4a 75 3a 29 50 fc bc ac bf f0 3b
       0.0064234384 0.00093570945 -0.030799942 0.007347068
0003e0 86 14 2d 3b 31 75 47 3c a2 01 b8 bb 71 54 3a bc
       0.0026409938 0.012173937 -0.005615429 -0.011372671
0003f0 74 16 34 bd b8 64 83 3c 7c 90 88 3c 5a 8d e7 3c
       -0.043966725 0.016039237 0.016670458 0.028265644

transformer.h.0.mlp.c_proj.bias f4 [32]
000000 9c d3 a0 ba 88 eb 92 3a 4e 6e 95 ba d3 93 89 3a
       -0.0012270096 0.001120911 -0.0011400671 0.0010496326
000010 93 09 8d ba 7c ff 71 b9 21 4a 9a 3a 30 a7 99 ba
       -0.00107603 -0.00023078726 0.001177136 -0.0011722799
000020 14 62 b0 39 51 8a b0 3a a2 e0 a5 3a fe c1 7d ba
       0.0003364241 0.0013468956 0.0012655447 -0.0009680091
000030 37 2f a7 3a 85 e3 96 ba de 22 12 b9 0f e3 5f ba
       0.001275516 -0.0011511898 -0.00013936634 -0.0008540609
000040 e4 f0 53 ba 63 6c a7 ba d8 b0 a2 ba ae 0c a6 ba
       -0.0008084907 -0.0012773391 -0.0012412323 -0.0012668574
000050 a4 49 1b ba 92 2c a0 3a fe 2d ae 3a 68 0b ac ba
       -0.0005923754 0.0012220314 0.0013288853 -0.0013125958
000060 2e bc 3e ba 68 8a a8 ba c6 d0 ae 3a 86 39 88 ba
       -0.0007275966 -0.0012858631 0.0013337366 -0.001039312
000070 d9 a7 a3 3a 0f 8b 9c ba 00 56 1f 35 1e 61 98 b9
       0.0012485936 -0.0011943298 5.935726e-07 -0.00029064057

transformer.h.0.mlp.c_proj.weight f4 [512, 32]
000000 7b 71 88 3b 3a 55 da bb 33 d1 a1 3b 0d 2e 10 bd
       0.0041639186 -0.006662992 0.0049382686 -0.035200167
000010 d9 3c 2f 3b 84 3f 17 bc bb 5f 79 bc b6 8a c1 3b
       0.002673915 -0.009231452 -0.015220578 0.005906428
000020 a5 50 4e 3c f7 e8 35 bc 48 bd c6 bb bc 06 2e bc
       0.012592469 -0.011102906 -0.0060650446 -0.010621723
000030 8c be 0d 3c 52 c3 46 bc 21 c1 73 3c 9e af 37 bc
       0.008651387 -0.012131529 0.0148775885 -0.011211304
000040 08 7d 89 bc 46 7c e0 3b 89 ae 2d bc 6f 63 cb 3c
       -0.016783252 0.006850752 -0.010600694 0.024827687
000050 bc 1b 46 b8 14 20 05 3b 42 87 16 3d 34 df 79 ba
       -4.723271e-05 0.002031331 0.036750086 -0.0009531856
000060 e1 43 0d bc 61 ec 6a bc e9 ae 9a 3b fa 77 e1 bb
       -0.008622141 -0.014338584 0.004720558 -0.0068807574
000070 22 9b 76 bb ae 49 b3 bc 44 86 79 bc d9 c9 2d bc
       -0.0037629087 -0.02188572 -0.015229765 -0.010607206
000080 39 dd e7 3c ea f9 29 3c 43 39 70 bc 54 a9 4d bc
       0.02830373 0.010374526 -0.01466209 -0.012552578
000090 78 83 d0 ba b4 76 b0 3b 1a b2 95 b8 b4 f7 33 3c
       -0.0015908321 0.0053852443 -7.138048e-05 0.01098435
0000a0 54 d3 3a 3c bf 64 a7 3b 83 e3 d0 3b 40 4e a2 3c
       0.011402924 0.0051084454 0.0063747778 0.019812703
0000b0 c4 b6 bc 3b 93 50 71 bc c2 5d a8 3c 71 31 23 3c
       0.005759092 -0.014728683 0.02055252 0.009960518
0000c0 38 91 5a bb 5d 53 26 3d 5e e0 83 3b d2 26 75 bc
       -0.0033350717 0.040606845 0.0040245494 -0.014962869
0000d0 b1 74 80 ba 6d 56 6e 3c c4 69 49 3b 53 7f 97 bc
       -0.0009800402 0.014546973 0.0030733207 -0.01849333
0000e0 d1 33 1b bc ef e0 97 bc 03 a6 56 3c 42 ad b1 3c
       -0.009472803 -0.018539874 0.013101104 0.021689061
0000f0 2c 1c 0d bc 35 2c 94 bb d4 9d 92 3b 59 b8 a1 ba
       -0.008612674 -0.0045218715 0.004474381 -0.0012338265
000100 cc 7f 22 3a 35 b9 aa bb d6 ed 29 3b de f5 2d bb
       0.0006198853 -0.0052100667 0.0025929115 -0.0026544253
000110 ce 9f 58 3a 0a fd bd bb 3e 39 79 bc f6 5e b4 3b
       0.0008263559 -0.005797987 -0.0152114015 0.0055044843
000120 a7 99 b4 3a 40 00 7a 3b 8e a6 09 b9 9b 0c 7f 3c
       0.0013778702 0.0038147122 -0.00013127385 0.01556697
000130 08 e2 b9 bb 66 d7 85 3b 1e 99 5c 3c c2 9b 03 3c
       -0.005672697 0.0040845154 0.01346424 0.008032741
000140 a5 fe 8b bb 60 d4 8e bb 7b 18 9a bb 40 4e fc 3a
       -0.0042722994 -0.004358813 -0.0047026253 0.0019249395
000150 d7 c1 31 bb 6f 75 6a bb 1b 59 6d bc fc b0 43 3c
       -0.0027123594 -0.0035775562 -0.014486576 0.011944052
000160 7b 47 94 bc ac 8f 6e bc cc ed 82 3c 1b a6 8c 3c
       -0.01810049 -0.014560621 0.015982531 0.017169049
000170 95 4e 8c ba 72 9e 93 bc 0f 91 0a bc 00 59 eb 3b
       -0.0010704572 -0.018019889 -0.008457436 0.0071822405
000180 39 29 d4 3b 7d d6 9f 3b 2e 0d 3f 3c f8 b9 f6 3b
       0.0064746407 0.004877864 0.011660857 0.0075294934
000190 a3 8b d1 3c e5 98 43 3c b6 e9 41 3c 69 1a 36 bb
       0.02557928 0.011938308 0.011835506 -0.0027786738
0001a0 a4 16 3f 3c 5f af d4 3b 7a d3 21 3d 89 4a 51 bc
       0.011663113 0.0064906324 0.03950832 -0.012774118
0001b0 81 0f 8e 3c 21 42 69 bc 27 7a 74 bc eb 45 e8 3b
       0.017341377 -0.014236958 -0.0149217015 0.007088413
0001c0 97 a1 84 3b e2 02 89 bc 91 bb a9 bb 39 c9 7b 3a
       0.0040475833 -0.016725007 -0.0051798304 0.00096048746
0001d0 26 58 4a 3c 54 aa 8a bc 0f d0 8b bc 74 0e 04 bd
       0.012350118 -0.016926922 -0.017066984 -0.032240346
0001e0 e3 9a a8 3b 59 48 50 3b be f7 37 bc 68 4a 73 3c
       0.005145417 0.0031781404 -0.0112285 0.014849283
0001f0 7c b6 b3 bb c0 a0 35 3d 68 12 c5 3b 81 4d 86 3c
       -0.0054844003 0.044342756 0.006014157 0.016394379
000200 03 1d 96 3c 61 5c 96 bc 93 59 93 bb 72 0a 24 bb
       0.01832438 -0.018354597 -0.004496762 -0.002503064
000210 78 c9 c4 3c bf d7 d9 3b 41 2f 41 3b f5 e2 83 bc
       0.024021849 0.0066480334 0.0029477628 -0.016099432
000220 4d 83 7c 3c e8 1e ce 3b 73 9a 97 bb 6d 19 95 3c
       0.015412164 0.0062903054 -0.004626566 0.0182006
000230 f0 e9 ab 3c 64 37 90 3c 1b 00 1c bb 8a e4 91 bc
       0.020985574 0.017604537 -0.0023803774 -0.017809171
000240 ae ff 00 3d a4 0a 1c bc 6d 78 11 3c af ea 8b 3c
       0.031493835 -0.009524021 0.008878809 0.01707968
000250 c6 74 ae 3b c2 f6 c2 3c b5 73 7d bc 89 b9 18 bc
       0.005323979 0.023799304 -0.015469481 -0.009321579
000260 99 cf 1e bc 8a 3d ca bb 99 5a 85 3c 71 94 35 bc
       -0.00969305 -0.006171887 0.016278552 -0.0110827545
000270 4c 8f 9b 3c fc 5e f6 bb 70 7f 91 bc 21 e6 ff 3a
       0.018989228 -0.0075186472 -0.017760962 0.001952354
000280 2c 46 bc bc 35 7a e1 3c 13 a1 bb bc 7a 9c 52 bc
       -0.02298268 0.027524093 -0.022903955 -0.01285469
000290 6d 9f 88 bb 4b 88 46 3c 13 1c 54 3b 9c 90 07 bc
       -0.0041693957 0.012117456 0.0032365366 -0.008274224
0002a0 2b 42 45 b9 57 64 2e bc e4 22 ac 3b 4e d0 0d bb
       -0.00018812034 -0.01064404 0.0052531827 -0.0021639052
0002b0 84 92 a1 3b 3f 92 21 3b 7b 2b 47 3b 62 d9 0a 3c
       0.004930796 0.002465382 0.0030390907 0.00847468
0002c0 bd b0 05 bd 63 e8 97 bc 71 02 dd bb 3e 87 9c bb
       -0.032639254 -0.018543428 -0.006744676 -0.0047768643
0002d0 31 91 25 3b 1f 94 52 3c ed bd 60 bc 9a aa b3 bc
       0.0025263543 0.012852698 -0.013717157 -0.021931935
0002e0 0f ba bc 3b 5b 86 b1 bb 72 49 00 bd cd e0 e3 bb
       0.0057594846 -0.0054176277 -0.031320043 -0.0069542886
0002f0 b4 10 a1 3b 38 fd 1e bc 4c 2f a9 3b 3f 5f 7c 3b
       0.0049153212 -0.009703927 0.005163109 0.003850892
000300 84 e4 6f 3b 92 b9 e6 3a 80 3f 16 bc ce d4 19 3c
       0.0036604712 0.0017602912 -0.009170413 0.0093891155
000310 5b b9 91 bc 49 6c 24 bb a6 87 8d bc ed c7 5a 3c
       -0.01778858 -0.0025088957 -0.017276596 0.01335333
000320 bd 83 0d bd b1 4f c3 3c e2 65 b9 3c e6 ad 2a 3c
       -0.034549464 0.02384171 0.02263159 0.010417437
000330 e3 ce 8b 3b ac 8e 0f 3c 05 35 a1 bc 84 8f d7 ba
       0.004266606 0.008762043 -0.019678602 -0.0016445969
000340 9a be 1d 3b 31 76 e4 3b be 79 9f bb 19 ab 89 3c
       0.0024069906 0.0069720973 -0.0048668077 0.016805219
000350 8c 16 d3 ba f3 91 c3 bb d6 d1 83 bc 75 e8 0d 3c
       -0.0016104742 -0.0059683262 -0.016091269 0.008661379
000360 da 1d a3 bc 82 15 ad bc ac 4f b9 3c 11 1e 0d bc
       -0.019911695 -0.02112842 0.022620998 -0.008613125
000370 e0 d1 f7 3b a4 27 bc ba 79 aa f2 3c 37 6c 05 3d
       0.007562861 -0.0014355076 0.029622303 0.032573905
000380 16 a2 53 ba 17 20 14 3c e5 f6 0a 3b e1 c7 c8 3a
       -0.0008073164 0.009040854 0.002120429 0.0015318358
000390 55 7e 08 bb 82 30 aa bc 1d 57 06 3d 96 30 59 3b
       -0.0020827253 -0.020775083 0.03279792 0.0033140532
0003a0 71 08 05 bb 3d 21 94 3c 7a 2b 00 bc c3 96 3b 3b
       -0.002029922 0.018082255 -0.007822866 0.0028623797
0003b0 0c ad 98 bb 01 9f 10 3b 49 96 e1 bb ae 6e 82 3c
       -0.0046593007 0.002206743 -0.0068843705 0.015921917
0003c0 4f 34 7d 3c 7f 47 92 bc 42 76 89 bc c6 86 a6 bc
       0.015454366 -0.017856358 -0.016780023 -0.020327937
0003d0 c0 51 20 3b 7e ce 6c 3c e7 f4 6b bc 6d 42 60 3c
       0.002446279 0.014453528 -0.014401651 0.013687712
0003e0 ce 47 20 bc af 17 9d 3c 14 c2 f4 3b 52 ae 5c bc
       -0.009782745 0.019176332 0.007469425 -0.013469296
0003f0 09 46 4e 3c aa e7 f2 bb 7d ef f6 ba dc a3 a4 bc
       0.01258994 -0.0074128704 -0.0018839684 -0.020097665

transformer.ln_f.bias f4 [32]
000000 d0 ce 9e ba e4 e3 a0 3a 36 0f 5c ba 1c 4f 8a 3a
       -0.0012116078 0.0012274948 -0.00083946006 0.0010552141
000010 54 2f a1 ba 69 a2 0a 3a 29 41 ad 3a 8f 02 a4 ba
       -0.001229743 0.0005288483 0.0013218272 -0.001251297
000020 9f 32 21 3a c2 10 a6 3a 62 93 ac 3a 21 e4 6e ba
       0.0006149206 0.0012669789 0.0013166482 -0.00091129733
000030 b6 f2 ac 3a aa 17 64 ba ef 3f 4d ba bb 46 98 ba
       0.0013194892 -0.0008701036 -0.0007829656 -0.0011617759
000040 b3 c4 1c ba 7a 48 91 ba 5a b0 9c ba 01 17 8e ba
       -0.0005980238 -0.0011084222 -0.0011954412 -0.0010840596
000050 a7 0f 5c 3a 18 ff a7 3a f6 86 aa 3a cf b6 9e ba
       0.00083946664 0.0012817113 0.0013010192 -0.0012108925
000060 ba 46 6b 3a ee 9c a8 ba 15 bf a8 3a 75 e7 a4 ba
       0.00089750777 -0.0012864152 0.001287433 -0.0012581187
000070 c1 90 aa 3a f9 d1 9f ba 2c 84 b1 39 74 17 3b 39
       0.0013013111 -0.0012193314 0.00033858547 0.00017842447

transformer.ln_f.weight f4 [32]
000000 74 d3 7f 3f 97 f1 7f 3f fd b6 7f 3f f4 e3 7f 3f
       0.99932027 0.9997801 0.9988859 0.99957204
000010 14 28 80 3f 40 2b 80 3f 5f 1c 80 3f f4 13 80 3f
       1.0012231 1.0013199 1.0008658 1.0006089
000020 62 2b 80 3f 2c db 7f 3f fa 16 80 3f d1 c4 7f 3f
       1.0013239 0.99943805 1.0007012 0.99909693
000030 0b 0a 80 3f 83 28 80 3f 61 2a 80 3f 1e 27 80 3f
       1.0003065 1.0012363 1.0012933 1.0011938
000040 20 21 80 3f 97 2a 80 3f dd fe 7f 3f ad c2 7f 3f
       1.0010109 1.0012997 0.99998266 0.99906427
000050 46 b0 7f 3f ae 2b 80 3f b4 b0 7f 3f 1d 16 80 3f
       0.99878347 1.001333 0.99879 1.0006748
000060 65 2b 80 3f ad b6 7f 3f 42 b5 7f 3f c9 1a 80 3f
       1.0013243 0.99888116 0.9988595 1.0008174
000070 5f df 7f 3f 6c e8 7f 3f eb e9 7f 3f ec 12 80 3f
       0.9995021 0.9996402 0.99966305 1.0005774
