models/calcgpt_emb32_lay1_head2_ep1_bs2_lr1e3_dsCalc/checkpoint-68/model.safetensors (safetensors, 156496 bytes, 16 tensors)

transformer.h.0.attn.c_attn.bias f4 [96]
0	0x3b2a3da5	0.0025976684
1	0x3c17b676	0.009259811
2	0xbba0ffe4	-0.004913317
3	0xbba9335d	-0.0051635937
4	0x3bb053a5	0.005381065
5	0xbc58e47f	-0.013238071
6	0xbbf32fe5	-0.007421481
7	0x3b512539	0.0031913056
8	0xbc0b5892	-0.0085050035
9	0xbc12743e	-0.008938847
10	0xba452fac	-0.0007522057
11	0xbbf696f4	-0.0075253192
12	0xbba67778	-0.0050801598
13	0xbaf5f22e	-0.0018764192
14	0xbb828dc8	-0.003984187
15	0x3b4ae360	0.003095828
16	0x3c0072dd	0.007839886
17	0xbbf7608f	-0.0075493525
18	0xbcab92e7	-0.020944072
19	0x3b5e493a	0.0033918158
20	0x3b7af5fc	0.003829359
21	0x3baec95f	0.005334064
22	0xbc8d46b1	-0.017245622
23	0xba547f9d	-0.0008106174
24	0x3abc67c9	0.0014374192
25	0x3c815649	0.015788214
26	0xbc81604b	-0.015792986
27	0xbb711bd7	-0.0036790275
28	0x3bf0c257	0.007347386
29	0x3c31c85c	0.010850992
30	0xbb8b8c71	-0.0042586853
31	0xbbe6a6af	-0.007038913
32	0xb54db40a	-7.663044e-07
33	0x3628b421	2.51388e-06
34	0xb63dd6a8	-2.828814e-06
35	0x35c2daab	1.4517767e-06
36	0x36050c2a	1.9825625e-06
37	0xb572092b	-9.0165366e-07
38	0xb647cec4	-2.9773664e-06
39	0xb6ab762b	-5.1099537e-06
40	0x36672bb3	3.4447119e-06
41	0x36551e44	3.175709e-06
42	0x367faa63	3.809714e-06
43	0x35b01771	1.3119844e-06
44	0xb52e6449	-6.4965985e-07
45	0xb5db1938	-1.6324111e-06
46	0xb63e7b59	-2.8384004e-06
47	0xb493b1ff	-2.7510393e-07
48	0xb597130e	-1.1255922e-06
49	0xb47ef94c	-2.3746287e-07
50	0xb64c2cfb	-3.042455e-06
51	0x35c4b4a4	1.4655711e-06
52	0xb5e5d45d	-1.7123635e-06
53	0x35c3e6cc	1.4595803e-06
54	0x35e8757d	1.7319541e-06
55	0x3621a44e	2.4086507e-06
56	0xb5d3bcc8	-1.5775668e-06
57	0xb537e044	-6.849916e-07
58	0xb431e005	-1.6565907e-07
59	0xb572cd77	-9.0451016e-07
60	0x36810d90	3.8460785e-06
61	0xb4b6e1f6	-3.406455e-07
62	0x35c44c78	1.4625393e-06
63	0x36527e40	3.1365926e-06
64	0x3bb321d9	0.0054666814
65	0xba6f8818	-0.0009137406
66	0xba824d84	-0.0009941314
67	0xbc183e70	-0.00929223
68	0xbb88d0ab	-0.004175266
69	0xbbb760bf	-0.00559625
70	0xba210faf	-0.00061439996
71	0x3b5ec580	0.003399223
72	0xb98add3b	-0.0002648624
73	0x3bd34b57	0.00644819
74	0xbb1a52ba	-0.0023547844
75	0xba2e5e0b	-0.0006651587
76	0xbaffa467	-0.0019503952
77	0xbbfe3dc3	-0.0077588274
78	0x3ac0f2b1	0.0014720765
79	0x3b86cde3	0.004113899
80	0x3bb73923	0.005591528
81	0xbb66ecfa	-0.0035236464
82	0xbb936023	-0.0044975444
83	0x38a0aeb9	7.661939e-05
84	0x3c0ab06e	0.008464916
85	0xbbc1d51c	-0.005915297
86	0xbb2b5058	-0.0026140418
87	0x3b53071f	0.003220029
88	0x3bc48da9	0.0059983325
89	0xbbc9153c	-0.0061365645
90	0x3c026114	0.007957716
91	0xbbac08e0	-0.0052500814
92	0x3aa6869b	0.001270491
93	0x3ba9cfc5	0.0051822388
94	0x3b5a8401	0.003334284
95	0x3b7e834d	0.0038835586

transformer.h.0.attn.c_attn.weight f4 [32, 96]
0	0x3d0fa840	0.035072565
1	0x3cc09a1d	0.023510987
2	0xbc82931f	-0.015939293
3	0x3c409519	0.011754298
4	0xbc060789	-0.008180507
5	0xbbcf4c8f	-0.006326265
6	0x3ce5e8d2	0.028065119
7	0xbb80df57	-0.003932874
8	0x3ca30549	0.019899981
9	0xbb4a5126	-0.0030871122
10	0x3c8f6c02	0.017507557
11	0xbd17928c	-0.037004992
12	0x3ba365ed	0.0049865157
13	0x3d0be690	0.03415543
14	0xbd136a71	-0.035990182
15	0xbd1e46b4	-0.038641647
16	0x3c99c88f	0.018772392
17	0x3d2426b3	0.04007597
18	0x3d14634c	0.03622751
19	0x3c318f49	0.0108373845
20	0xbd102f25	-0.03520121
21	0xbcd865e3	-0.02641577
22	0x3ce3f639	0.027827369
23	0xbcad8ded	-0.02118584
24	0x3d1bde36	0.038053714
25	0xbd2bbd54	-0.041928604
26	0x3cfd8ab4	0.030949928
27	0x3ab691f3	0.0013928994
28	0xbc595e06	-0.013267046
29	0xbc1e41a5	-0.009659206
30	0x3cc2cb00	0.023778439
31	0x3cc58a6e	0.02411386
32	0xbc6acba2	-0.014330776
33	0xbb18e2d4	-0.002332856
34	0xbb98a076	-0.0046578003
35	0x3cf218c8	0.029552832
36	0xbbb7e0fe	-0.005611538
37	0xbb80dea0	-0.003932789
38	0x39bf7b7b	0.0003652236
39	0x3c23e37a	0.010002965
40	0xbc44c2f8	-0.012009375
41	0x3a173892	0.00057686225
42	0xbc11f7ea	-0.008909205
43	0x3961eb49	0.00021545323
44	0xbc8b6d16	-0.01701979
45	0x3ca4e0ad	0.020126665
46	0xbc525d90	-0.01283969
47	0x3cbb6041	0.022873046
48	0x3d42553f	0.04744458
49	0xbbfe0a39	-0.0077526835
50	0xbcd00cd7	-0.025396748
51	0xbc9ad304	-0.018899448
52	0xbc884da4	-0.016638584
53	0x3d241c3e	0.040065996
54	0xbd920eda	-0.07131739
55	0x3d227546	0.039662622
56	0x3a13f954	0.0005644758
57	0x3cf212a2	0.0295499
58	0xbc16d586	-0.009206181
59	0xbc0875c9	-0.008328863
60	0xbd281e89	-0.041044746
61	0x3c7e8ece	0.015536977
62	0xbd01d1c3	-0.031694185
63	0xbb871453	-0.004122296
64	0xbd077040	-0.033066034
65	0xbbae4550	-0.0053183213
66	0xbaf5155a	-0.001869838
67	0x3ca16ca3	0.019705122
68	0xbcc3f07f	-0.023918388
69	0x3caa11a9	0.020760374
70	0xbc3cc6e0	-0.011522025
71	0x3d2cc444	0.04217936
72	0xbcacce8d	-0.021094585
73	0x3c8b7e93	0.017028129
74	0xbcc526b4	-0.024066307
75	0xbcb6b86d	-0.022304738
76	0xbc4a852a	-0.01236085
77	0xbc9579ac	-0.018246494
78	0x3cb9388c	0.022609971
79	0x3d0d8d1c	0.0345584
80	0x3c89f695	0.016841212
81	0x3c52c0be	0.012863336
82	0x3c27921b	0.010227705
83	0x3c375138	0.011188798
84	0x3c4d5ecc	0.012534808
85	0x3b562584	0.003267617
86	0x3c815ec0	0.01579225
87	0x3d031bf9	0.0320091
88	0xbcb07bdd	-0.021543438
89	0xbce63223	-0.028100079
90	0x3c8271d4	0.015923418
91	0xbc8ee9a6	-0.017445397
92	0x3cc4d0c4	0.024025328
93	0x3b12d35a	0.0022403807
94	0xbcde410b	-0.027130624
95	0x3b93097e	0.0044872155
96	0x3cb62cc4	0.022238143
97	0x3ce18f42	0.027534131
98	0xbd6b6cf3	-0.05747695
99	0x3c4f4287	0.012650139
100	0x3cd672c5	0.026177773
101	0x3bd3d86b	0.006465008
102	0x3c7b6c6a	0.015345672
103	0x3c808ada	0.01569121
104	0xbc686424	-0.014184032
105	0x3b896f50	0.0041941777
106	0x3ce9a463	0.028520769
107	0xbbc1df88	-0.0059165396
108	0xbc0278e3	-0.007963392
109	0xbc9d72df	-0.019219814
110	0xbc129633	-0.008946943
111	0xbcd73c27	-0.0262738
112	0x3c8c544c	0.01713004
113	0x3c5ac795	0.013353248
114	0x3c6cfa52	0.014463978
115	0x3c37e940	0.011225045
116	0xbd1b9015	-0.037979204
117	0x3c947c8a	0.018125791
118	0x3c688194	0.01419105
119	0x3c73e246	0.014885491
120	0x3c416f18	0.011806272
121	0xbc794767	-0.015214778
122	0x3c98c3ad	0.018647993
123	0x3c254900	0.010088205
124	0x3ca522c1	0.020158174
125	0xbc2514b5	-0.010075738
126	0x3b828a96	0.003983806
127	0x3d52d0a2	0.0514685
128	0x3cd30b84	0.025762327
129	0xbbdb14ba	-0.0066858204
130	0xb93dd546	-0.00018103895
131	0x3b95bdc7	0.0045697424
132	0x3ccabaac	0.024747215
133	0x3b176556	0.0023101172
134	0xbccb5efc	-0.024825566
135	0x3acda51f	0.0015689469
136	0xbcf0496e	-0.029331889
137	0x3c598544	0.013276402
138	0x3bc48c44	0.0059981663
139	0xbc59a9a7	-0.013285077
140	0xbd269d36	-0.04067727
141	0x3c8d8d42	0.017279271
142	0x3c1e99c8	0.009680219
143	0xbc1f0c42	-0.009707512
144	0x3ca86a48	0.020558491
145	0xbbf26ce3	-0.007398234
146	0xba32c205	-0.00068190723
147	0x3c4b835f	0.012421458
148	0xbcdffc6f	-0.02734205
149	0x3d07de03	0.03317071
150	0x3c7d75fa	0.015470022
151	0xbd108595	-0.035283644
152	0x3cdcf96d	0.026974404
153	0x3c60fad1	0.013731674
154	0xbc82bde9	-0.015959697
155	0xbcf09dfa	-0.029372204
156	0x3c4c4d53	0.012469607
157	0xbd0c5bf9	-0.0342674
158	0x3b08e98e	0.0020891163
159	0x3b1bbc86	0.0023763492
160	0xbc815736	-0.015788656
161	0xba953652	-0.0011383987
162	0x3cffb372	0.031213496
163	0xbd1c9df8	-0.03823659
164	0x3c85ad57	0.016318006
165	0x3c43c503	0.011948827
166	0xbb2c0aaf	-0.0026251485
167	0xbc9a2deb	-0.018820724
168	0xbc67edb8	-0.014155798
169	0xbbc34ae3	-0.005959855
170	0xbbff5197	-0.0077917087
171	0xbd122a9d	-0.03568517
172	0xbc99d3f3	-0.018777823
173	0x3bd140ba	0.00638589
174	0x3c91ea94	0.01781205
175	0x3c8016e5	0.015635917
176	0xbc4e00a3	-0.012573394
177	0xbb1a932c	-0.0023586256
178	0xbb5a7159	-0.003333172
179	0x3c8d1784	0.017223127
180	0x3c87d351	0.016580256
181	0xbcb47bde	-0.02203172
182	0xbb194705	-0.0023388278
183	0x3b9ca675	0.0047805854
184	0x3bf66fba	0.007520643
185	0xbd340bf1	-0.0439567
186	0x3cad1ab2	0.021130893
187	0xbbd6dfd7	-0.0065574455
188	0x3bdbda15	0.006709347
189	0x3c05e30c	0.008171808
190	0xbd4c405e	-0.049866073
191	0x3c151e43	0.009101453
192	0x3c92f493	0.017938888
193	0xbb644b17	-0.0034834796
194	0x3c5921ec	0.0132527165
195	0x3aba529f	0.0014215297
196	0xbc754419	-0.014969849
197	0xbc766456	-0.01503857
198	0xbca8cd16	-0.020605605
199	0xbd48c60b	-0.049016993
200	0xbd0e5b1a	-0.03475485
201	0x3c349167	0.011020995
202	0x3cd6d1ce	0.02622309
203	0x3b2b698e	0.0026155445
204	0x3ba300ae	0.0049744463
205	0xbc60c7d7	-0.0137195205
206	0xba22ec11	-0.0006214986
207	0xbbc716e3	-0.0060757264
208	0xbd0ecc18	-0.034862608
209	0x3ce67071	0.028129788
210	0x3af2b2c0	0.0018516406
211	0x3c461b42	0.01209146
212	0x3b9c7498	0.0047746412
213	0x3c6a6bc8	0.014307924
214	0xbb70c4ce	-0.0036738398
215	0xbd1334dd	-0.035939086
216	0xbb148a90	-0.0022665597
217	0xbc8e5a46	-0.01737703
218	0xbb65461c	-0.0034984415
219	0xbcd18e23	-0.025580471
220	0xbb168d41	-0.0022972377
221	0xbc4131d3	-0.011791664
222	0xbcf41dd3	-0.029799378
223	0xbcee8f7c	-0.029121153
224	0x3c601d52	0.0136788655
225	0xbb80bcf4	-0.003928775
226	0xbca9bfcc	-0.020721339
227	0xbcea6680	-0.028613329
228	0x3c8a7a5e	0.016904052
229	0xbc0006db	-0.0078141345
230	0x3c653189	0.013988861
231	0xbd3b0f40	-0.04566884
232	0x3cb7d89a	0.02244215
233	0x3c5e9de7	0.013587452
234	0x3b765b2c	0.0037590964
235	0x3d880c92	0.066430226
236	0x3c08c371	0.008347378
237	0x3c9f5c62	0.019453231
238	0xbcab8fe1	-0.02094263
239	0xbc0c1756	-0.008550486
240	0xbc859f0f	-0.016311197
241	0x3cdbec3d	0.026846046
242	0x3d0e7b6c	0.034785673
243	0xbd045535	-0.032307822
244	0x3cd336e3	0.025783008
245	0xbd241da8	-0.040067345
246	0xbd5620e0	-0.052277446
247	0x3c1d2fd7	0.009593925
248	0xbd2ceb7f	-0.042216774
249	0x3cde8829	0.027164536
250	0x3c17b587	0.009259588
251	0xbd04c021	-0.03240979
252	0xbd1ece3b	-0.038770895
253	0x3d36f5a8	0.04466787
254	0xbc2604e8	-0.010133006
255	0xba550876	-0.0008126566

transformer.h.0.attn.c_proj.bias f4 [32]
0	0x3bc9a2d4	0.006153444
1	0xba10ed10	-0.0005528489
2	0x3bb0bbeb	0.0053934953
3	0xbb3e9461	-0.002908014
4	0xbb0daed1	-0.0021619091
5	0x3a6f548c	0.0009129725
6	0xbb7777bb	-0.0037760574
7	0xbb94bd60	-0.004539177
8	0xbb702e69	-0.0036648756
9	0xbafe1e57	-0.0019387704
10	0x3ba124c2	0.004917712
11	0xba39eed3	-0.00070927775
12	0xbb56a63d	-0.0032752894
13	0xbbc68096	-0.006057809
14	0x3aad2ed1	0.0013212805
15	0x3902a6af	0.0001245986
16	0x3c2cf4cd	0.010556412
17	0x3b809753	0.0039242893
18	0xbbdcb494	-0.006735394
19	0x3b973b74	0.0046152417
20	0x3b5acc34	0.0033385875
21	0xbc031012	-0.007999437
22	0x3a96d24f	0.0011506769
23	0x3b859358	0.0040764026
24	0xbb87cc32	-0.004144215
25	0xbb9a7bfd	-0.0047144876
26	0xba04f353	-0.00050716585
27	0x3b4a0a2e	0.0030828821
28	0xbb008d1c	-0.0019615358
29	0x3bc3a8b0	0.005971037
30	0xbba94acf	-0.0051663886
31	0xb8945c18	-7.074344e-05

transformer.h.0.attn.c_proj.weight f4 [32, 32]
0	0x3b39063f	0.0028232483
1	0xbceccb5c	-0.028905563
2	0xbb4f7437	-0.0031654963
3	0xbcb60de4	-0.02222342
4	0x3c305854	0.010763247
5	0xbc919412	-0.0177708
6	0x3c0befc1	0.0085410485
7	0xbc3bea84	-0.011469487
8	0x3c78aaa5	0.015177404
9	0x3bf4ae56	0.0074670715
10	0xbc0031b4	-0.00782435
11	0x3c76ce5d	0.015063849
12	0xbca19ffc	-0.019729607
13	0xbcc925a7	-0.024554087
14	0xba7ff5b5	-0.0009764091
15	0xba5e3266	-0.0008476138
16	0xbc17452f	-0.009232803
17	0xbad91603	-0.0016562346
18	0x3ab6f097	0.0013957199
19	0xbc108b0f	-0.008822217
20	0xbc8acf55	-0.016944567
21	0xbc0d6ef1	-0.0086324075
22	0xbbbc87da	-0.0057534995
23	0x3d1ac3c2	0.037784345
24	0x3be26d80	0.006910026
25	0x3c76792e	0.01504354
26	0x3cb5971d	0.022166783
27	0xbcbf3946	-0.02334274
28	0x3b04d5f4	0.0020269128
29	0x3a5a9226	0.0008337818
30	0x3d0a66c4	0.03378941
31	0x3cba42b5	0.022736887
32	0xbb34f5c8	-0.0027612317
33	0xbc295292	-0.010334628
34	0xbc3ffc53	-0.011717874
35	0xbcd988ff	-0.026554583
36	0xbb91d36a	-0.0044502513
37	0x3c086d75	0.008326878
38	0x3ca2d61c	0.019877486
39	0x3bfba805	0.0076799416
40	0xbc62349b	-0.013806487
41	0xb9560680	-0.00020411052
42	0xbd026d09	-0.031842265
43	0xbcce51ed	-0.02518555
44	0x3c308b5a	0.0107754115
45	0xbc4d2482	-0.012520911
46	0x3bc7f4ef	0.0061021964
47	0x3b839d04	0.0040165205
48	0x3c165301	0.009175063
49	0xbcd07a0c	-0.025448821
50	0x3bd980cd	0.0066376687
51	0xbc53df2a	-0.012931624
52	0xbc81c3a6	-0.015840363
53	0x3c0273be	0.007962165
54	0x3c2d946a	0.010594467
55	0xbcb72551	-0.022356661
56	0xbcbfa19b	-0.02339249
57	0xbc347831	-0.011014984
58	0x3b18df70	0.0023326539
59	0x3c039046	0.008030003
60	0x3bc17ae7	0.0059045437
61	0xbc788f72	-0.015170919
62	0x3d1f3f18	0.03887853
63	0x3bc50551	0.0060125967
64	0xbc930975	-0.017948845
65	0x3cb9eeab	0.022696814
66	0x3c014840	0.007890761
67	0x3c5289fe	0.012850283
68	0xbc27a2b7	-0.010231665
69	0xbc42450d	-0.011857283
70	0xbc26179b	-0.010137464
71	0x3b40f0ec	0.0029440476
72	0x3c32f3d8	0.010922395
73	0x3af2fa27	0.0018537686
74	0x3c888bf5	0.0166683
75	0xbc359369	-0.011082509
76	0xbc267dc8	-0.0101618245
77	0x3bc21eea	0.0059240954
78	0xbd18e946	-0.037331842
79	0xbc7f7a7e	-0.015593169
80	0xbcfd9f32	-0.0309597
81	0x3b36a928	0.002787182
82	0xbab19656	-0.0013548832
83	0x3c818ad8	0.015813276
84	0xbc5b3f6e	-0.013381822
85	0xbc62bcba	-0.013838941
86	0x3ab4c07a	0.0013790273
87	0xbc89262e	-0.016741838
88	0xbb5efbec	-0.003402467
89	0x3c42dc55	0.011893352
90	0x3c1affe1	0.00946042
91	0xbbfeb2e5	-0.0077727907
92	0x3cbabb2d	0.02279433
93	0xbc3a7414	-0.011380214
94	0x3c2c0465	0.010499095
95	0xbc875d05	-0.016523847
96	0x3bbcd294	0.0057624076
97	0xbb0ad505	-0.0021184098
98	0xbc09b0bb	-0.008403952
99	0x3bb77478	0.005598601
100	0xbc23a990	-0.009989157
101	0x3c99e37b	0.018785229
102	0x3ccc96af	0.024974195
103	0x3c109907	0.008825547
104	0x3c676971	0.01412426
105	0x3ce5be47	0.028044833
106	0x3c5272cd	0.012844753
107	0x3c83c848	0.016086712
108	0xbc021b0a	-0.007941017
109	0xbad8f8b0	-0.0016553607
110	0x3c45f108	0.012081392
111	0x3c87465e	0.016513046
112	0xbb3f5e36	-0.0029200441
113	0x3c7b92b0	0.015354797
114	0xbc95e8ae	-0.018299427
115	0x3bf60bdf	0.0075087394
116	0xbbdade0b	-0.0066793016
117	0x3c5639c5	0.013075297
118	0xbb29409b	-0.0025825861
119	0xbbd6eb6f	-0.0065588276
120	0x3b376813	0.0027985617
121	0x3b7d8e33	0.0038689494
122	0x3ca83592	0.020533357
123	0x3b963338	0.0045837425
124	0x3ac50f27	0.0015034423
125	0xbc0ddaee	-0.008658154
126	0x3c19fa4c	0.009398054
127	0xbc60290e	-0.013681663
128	0x3c51be22	0.012801679
129	0x3c56dd50	0.013114288
130	0x3afb7a17	0.0019186166
131	0xbbc14597	-0.0058981883
132	0xbbe31817	-0.006930362
133	0x3bd4529a	0.0064795734
134	0xbc49897b	-0.012300844
135	0xbc139ea3	-0.00900999
136	0x3c7a7153	0.015285808
137	0x3b0428b2	0.0020165858
138	0x3cb1d6e9	0.021708922
139	0x3b0c138f	0.0021373963
140	0x3b81722c	0.003950378
141	0xbcdeb6a6	-0.027186703
142	0xbc0e11af	-0.008671208
143	0x3c3d17d6	0.011541327
144	0x3c177d8d	0.009246242
145	0x3c021ec0	0.007941902
146	0xbca26e05	-0.019827852
147	0xbc0012a9	-0.007816949
148	0x3aba05f8	0.0014192453
149	0xbadb4608	-0.0016729245
150	0x3c71debc	0.014762577
151	0xb97da01c	-0.00024187606
152	0x3bf2e51d	0.0074125663
153	0x3c4476ad	0.011991185
154	0x3cad6226	0.021164965
155	0xbca0aa5d	-0.019612486
156	0xbd1a6a07	-0.03769877
157	0x3ac46d1d	0.0014986132
158	0x3cbb7e7b	0.022887459
159	0xbce673ed	-0.02813145
160	0xbcf864c4	-0.030321486
161	0x3c243d6c	0.01002441
162	0xbc5e4bd8	-0.013567887
163	0xbafaefc0	-0.0019144937
164	0xbc470ff0	-0.012149796
165	0xba577b48	-0.00082199695
166	0xbab3d390	-0.0013719667
167	0x3c749ed5	0.014930447
168	0x3b7f8097	0.0038986558
169	0xbc8c84b2	-0.017153118
170	0xbbc5e8ad	-0.0060397
171	0xbc4c8d47	-0.012484855
172	0x3c33f12b	0.010982792
173	0xbc7ecd6c	-0.015551906
174	0x3c01f1fd	0.00793123
175	0xbc0824fc	-0.008309599
176	0xbcd20174	-0.025635459
177	0x3aa73aa7	0.0012758569
178	0x3cde59b8	0.02714239
179	0xbbf80afe	-0.0075696697
180	0xbcba2a7b	-0.022725334
181	0x3cdd6279	0.027024494
182	0xbb6182a1	-0.0034410136
183	0xbc7f29d8	-0.015573941
184	0x3c623795	0.013807197
185	0x3cacf2f6	0.021111947
186	0x3ca66ed8	0.020316526
187	0x3b567fa9	0.00327299
188	0x3aef85a2	0.0018274079
189	0x3ba67972	0.0050803954
190	0x3d1507ff	0.03638458
191	0x3af6814c	0.0018806844
192	0x3bc0c543	0.0058828904
193	0xb9d83c6b	-0.00041243745
194	0x3cf28879	0.02960609
195	0x3c480b6a	0.012209753
196	0x38886358	6.5034896e-05
197	0x3b9bbeec	0.0047529843
198	0xbcdc91e2	-0.026925031
199	0x3c12c2cf	0.008957579
200	0x39010956	0.00012305877
201	0xbca90c75	-0.020635823
202	0x3b6645a6	0.0035136729
203	0x3b727a80	0.0036999285
204	0x3c6fa85b	0.014627541
205	0xbb85bf35	-0.0040816315
206	0xbc8455b4	-0.016154148
207	0x3c09bc2f	0.008406683
208	0xbc0fe406	-0.008782392
209	0x3c31bbcd	0.010847998
210	0xbc749e0f	-0.014930262
211	0x3aa561a3	0.0012617599
212	0x3ca3cf92	0.019996438
213	0xbc4371d4	-0.011928994
214	0xbb9a0709	-0.0047005457
215	0x3caef94c	0.021359108
216	0x3c8a4609	0.016879098
217	0xbbc770f7	-0.0060864645
218	0x3c0f1d3f	0.008735
219	0xbca9e7b4	-0.020740367
220	0x3c9105df	0.017702995
221	0xbbbb5e1a	-0.005718005
222	0xbcd92db4	-0.02651105
223	0x3aa92648	0.0012905085
224	0xbc57b01d	-0.013164547
225	0xbcae0015	-0.021240273
226	0xbaf2a211	-0.0018511434
227	0x3b887010	0.0041637495
228	0xbc54ba06	-0.012983805
229	0x3c4070c5	0.011745636
230	0x3d11a318	0.03555593
231	0xbb82fa77	-0.003997143
232	0xbafbd577	-0.0019213398
233	0xbb8a4af4	-0.004220361
234	0x3b2d5d0a	0.002645316
235	0xbbd966e9	-0.0066345823
236	0xbc60f42b	-0.013730089
237	0xbb2cc34d	-0.0026361526
238	0x3c2ea5cb	0.010659645
239	0x3c50b097	0.012737415
240	0xbba0540b	-0.004892831
241	0x3cbec13c	0.0232855
242	0x3c7ea4c1	0.01554221
243	0xbb84b545	-0.0040499293
244	0xbb896386	-0.0041927723
245	0xbb828ad2	-0.003983834
246	0xbc8e9dbb	-0.017409196
247	0xbb70423a	-0.0036660568
248	0xbc6da39a	-0.014504338
249	0xbc2a9541	-0.0104115615
250	0xbc3268ac	-0.0108892135
251	0x3c4313de	0.011906592
252	0xbc7dbfb5	-0.015487601
253	0xbc0ba87f	-0.008524059
254	0xbb871c20	-0.004123226
255	0x3cb0aa26	0.021565508

transformer.h.0.ln_1.bias f4 [32]
0	0x3be667ef	0.007031433
1	0x3c1875d8	0.00930544
2	0x3bb469b8	0.0055057667
3	0x3c01ce08	0.007922657
4	0x3c0cc9c3	0.008593026
5	0x3b4d92e3	0.003136807
6	0x3b34eb63	0.0027606122
7	0xbbe7b490	-0.0070710853
8	0xbbfb7383	-0.007673682
9	0x3b50b96c	0.0031848801
10	0xbaea90a0	-0.0017895885
11	0xbca1ded6	-0.019759577
12	0x3b010183	0.001968474
13	0xbb390c18	-0.0028235968
14	0x3b7a9771	0.0038237239
15	0xbc14a690	-0.009072915
16	0x3b30d7d6	0.0026984117
17	0xbb7e1a23	-0.0038772903
18	0xbc1f23b3	-0.009713101
19	0xbb9276c9	-0.0044697267
20	0xbb91020b	-0.0044252924
21	0xbb0de71f	-0.0021652651
22	0x3a7b4c78	0.0009586285
23	0xbace7345	-0.0015750906
24	0xbc28d653	-0.010305005
25	0xbbe949e7	-0.0071194055
26	0x3a5202b4	0.0008011267
27	0x3ba98f04	0.0051745195
28	0x3b2c8522	0.002632447
29	0x3b60da35	0.003430975
30	0xbb2205c1	-0.0024722668
31	0x3bbff839	0.005858448

transformer.h.0.ln_1.weight f4 [32]
0	0x3f7f7ffa	0.9980465
1	0x3f7f0ffe	0.9963378
2	0x3f8050eb	1.0024694
3	0x3f7e98db	0.9945199
4	0x3f810c63	1.0081905
5	0x3f7f5f1c	0.997545
6	0x3f7f3288	0.9968648
7	0x3f7e6b61	0.993826
8	0x3f81f0df	1.0151633
9	0x3f8060cc	1.002954
10	0x3f80314d	1.0015045
11	0x3f7c3f4e	0.98534095
12	0x3f7fd2ce	0.9993104
13	0x3f802a34	1.0012879
14	0x3f80f407	1.0074471
15	0x3f7fd4bf	0.99934
16	0x3f7d422d	0.989291
17	0x3f802fbd	1.0014569
18	0x3f7bb911	0.98329264
19	0x3f80fed6	1.007777
20	0x3f80517f	1.0024871
21	0x3f7eff9f	0.99608797
22	0x3f7f3081	0.99683386
23	0x3f80d865	1.0066038
24	0x3f7d5ce7	0.9896988
25	0x3f80cdd7	1.0062817
26	0x3f81550b	1.0104078
27	0x3f7d8813	0.9903576
28	0x3f7e4def	0.9933767
29	0x3f7f5b79	0.9974895
30	0x3f806603	1.0031132
31	0x3f81c961	1.0139581

transformer.h.0.ln_2.bias f4 [32]
0	0x39dde193	0.0004232047
1	0xbb93d012	-0.004510888
2	0x3c45fd4e	0.012084318
3	0xbca0efc0	-0.019645572
4	0xbbf8903b	-0.007585553
5	0xbacb4977	-0.0015509565
6	0x3c43b8ed	0.011945945
7	0x3c2067a6	0.009790337
8	0xbae69768	-0.001759273
9	0x39a32f8b	0.00031125205
10	0x3afb681e	0.001918081
11	0xbbcf452e	-0.0063253855
12	0xbac0ab95	-0.0014699573
13	0xbbd9baff	-0.006644606
14	0x3b2a37eb	0.002597327
15	0xbc691042	-0.014225068
16	0xbb31e463	-0.0027144186
17	0xbbfbe6ce	-0.007687426
18	0xbbaa3d9a	-0.0051953318
19	0xbc2b29c2	-0.010446968
20	0xba331d60	-0.00068326853
21	0x3adfbea5	0.0017070366
22	0xbc00830d	-0.007843745
23	0xbb3ad943	-0.0028510846
24	0xbb385734	-0.002812815
25	0xbb60caf2	-0.0034300652
26	0x3c4767f7	0.012170783
27	0x3b49d9e2	0.0030800034
28	0xbbf00ef7	-0.0073260027
29	0xbc683cf7	-0.014174691
30	0x3c38c1fd	0.011276719
31	0x3c071c79	0.0082465345

transformer.h.0.ln_2.weight f4 [32]
0	0x3f7f7696	0.9979032
1	0x3f7ec214	0.9951489
2	0x3f8045eb	1.0021337
3	0x3f8290ef	1.020048
4	0x3f81baa8	1.0135088
5	0x3f81858f	1.0118884
6	0x3f818ca8	1.012105
7	0x3f7f8e8c	0.99826884
8	0x3f804ccc	1.0023437
9	0x3f7fcf0d	0.9992531
10	0x3f801384	1.0005956
11	0x3f813395	1.0093867
12	0x3f824bce	1.0179384
13	0x3f802989	1.0012676
14	0x3f80ed68	1.0072451
15	0x3f804ef9	1.00241
16	0x3f7d1ff3	0.98876876
17	0x3f807943	1.0037006
18	0x3f7f6ceb	0.9977557
19	0x3f7e0d5e	0.99239147
20	0x3f7f8fd1	0.9982882
21	0x3f7feda2	0.99971974
22	0x3f819d86	1.0126197
23	0x3f816f36	1.0112064
24	0x3f8157bf	1.0104903
25	0x3f809a6b	1.0047125
26	0x3f81a51f	1.0128516
27	0x3f80a358	1.0049849
28	0x3f7e5bc3	0.9935877
29	0x3f80ce6e	1.0062997
30	0x3f7f8716	0.998155
31	0x3f826e49	1.0189906

transformer.h.0.mlp.c_fc.bias f4 [512]
0	0x3c042f31	0.008067892
1	0x3bef263c	0.007298259
2	0x3c1f3e36	0.009719422
3	0x3c11977c	0.008886214
4	0x3bd75d84	0.006572427
5	0xbc1974cc	-0.009366225
6	0x3b9a3e97	0.0047071683
7	0x3b06741f	0.002051599
8	0xbbc49481	-0.0059991484
9	0xbbc26c40	-0.0059333146
10	0xbac14d37	-0.0014747743
11	0xbc2b6e06	-0.010463243
12	0xbc08dbfc	-0.00835323
13	0xbc19d0be	-0.009388147
14	0xbbb23882	-0.005438865
15	0x3a75e6ab	0.00093803805
16	0x3bdeea89	0.006802861
17	0xbb7f0682	-0.003891379
18	0xbb2d527c	-0.002644687
19	0xba7231db	-0.00092389964
20	0xbbc66989	-0.0060550612
21	0xbafa630b	-0.0019103003
22	0xbb75d2a1	-0.0037509578
23	0xbb817e08	-0.0039517917
24	0xbc263d95	-0.010146518
25	0x3c26221a	0.010139966
26	0xbc329376	-0.010899415
27	0x390f647e	0.00013674979
28	0x3bcd6b88	0.0062689222
29	0xbb0eb25a	-0.0021773786
30	0xbb40b354	-0.0029403763
31	0xbbd0c0c2	-0.006370635
32	0x3be4267b	0.006962595
33	0xb9963fb1	-0.00028657683
34	0xbb3c77a8	-0.0028757844
35	0xbbcc7300	-0.006239295
36	0x3c1a201a	0.009407068
37	0xba8afbf8	-0.0010603657
38	0x3b85ad57	0.0040795016
39	0x3ba32732	0.0049790377
40	0x3b44d902	0.0030036573
41	0x3aa22dd6	0.0012373279
42	0x3c1d607e	0.009605525
43	0xba9bbc6f	-0.0011881719
44	0x3b4fcf26	0.0031709163
45	0x3beb4e3e	0.007180958
46	0x3b0567c3	0.0020356036
47	0xbbe198ff	-0.0068846936
48	0xbaa37573	-0.0012470916
49	0xbc051c43	-0.008124414
50	0xbbe9e2e0	-0.0071376413
51	0xbbb9e1b0	-0.005672656
52	0x3a9e01d0	0.0012054984
53	0xbb4c8531	-0.0031207318
54	0x3c311b49	0.010809728
55	0x3c275577	0.0102132475
56	0x3bc177b5	0.005904163
57	0xbbbe784f	-0.0058126817
58	0x3c1f52f5	0.009724368
59	0xbbf64710	-0.0075157955
60	0xbb7751ad	-0.0037737892
61	0xbbfb4e5f	-0.0076692547
62	0x3b89caa2	0.004205064
63	0x3c2cc71b	0.010545517
64	0x3a8d63a2	0.0010787139
65	0xbb97afa3	-0.004629092
66	0xbbd4fb35	-0.006499673
67	0x3c0b9fe2	0.008522006
68	0xba9b2182	-0.0011835548
69	0x3c239052	0.009983139
70	0x3b5df877	0.003387002
71	0x3b954c7e	0.0045562377
72	0xbbe84d94	-0.007089326
73	0x3bf465dc	0.0074584316
74	0x3bbad217	0.005701314
75	0xbc34e5af	-0.011041089
76	0x3c0e9cb6	0.008704355
77	0x39d183f3	0.00039961896
78	0xba69bcfe	-0.00089164067
79	0xbbaa6327	-0.005199808
80	0x3b757a16	0.0037456802
81	0x3b3501be	0.0027619447
82	0xbad0f42b	-0.0015941908
83	0xbb9ecf0c	-0.0048464593
84	0xbbe6acee	-0.007039658
85	0xbbade359	-0.005306643
86	0xbbd7057d	-0.0065619336
87	0xbb8024af	-0.003910623
88	0xba762b99	-0.0009390652
89	0x3b6af7c7	0.0035853253
90	0x3b922e71	0.0044611027
91	0x3b899d2d	0.004199645
92	0xbb1a0cae	-0.0023506093
93	0x3b9b2a8a	0.0047352957
94	0x3a36ac48	0.0006968421
95	0xbbbcd009	-0.0057621044
96	0x3c115881	0.008871199
97	0xbad02262	-0.0015879388
98	0x3c246a24	0.0100350715
99	0x3ba62a92	0.0050709927
100	0x3c0ee22c	0.008720916
101	0xbb8bce34	-0.0042665247
102	0x3abbcd60	0.0014328174
103	0x3c345f60	0.011009067
104	0x3b8cf9ea	0.004302253
105	0xbbd40930	-0.006470822
106	0x3b3f9712	0.0029234332
107	0x3bd23f00	0.0064162016
108	0xbb927466	-0.004469442
109	0xba46a36f	-0.0007577454
110	0xbc2fb991	-0.010725395
111	0x3bea6e7e	0.007154285
112	0x3bcf92cb	0.0063346378
113	0xbb3f6fe1	-0.0029210972
114	0x3b87296b	0.0041248105
115	0x3b781812	0.0037856144
116	0x3c4eab74	0.01261412
117	0x3a6f37d1	0.0009125444
118	0x3bad87b3	0.0052957176
119	0x3bc7bb6e	0.0060953414
120	0xb9b83e2e	-0.00035141542
121	0x3be78b83	0.0070661916
122	0xbc245ee2	-0.010032387
123	0xbbd80bf4	-0.006593222
124	0x3c288589	0.0102857435
125	0xbc43cce5	-0.011950706
126	0x3bd80e0c	0.0065934714
127	0x3ad82430	0.0016490277
128	0xbb7771ca	-0.0037757033
129	0xbbbe5328	-0.005808253
130	0x3c2eaf43	0.010661903
131	0xbbdd9ce5	-0.006763088
132	0xbbf7cfcd	-0.0075626136
133	0x3b4befa2	0.0031118174
134	0xbba68adf	-0.0050824727
135	0x3b9d884c	0.0048075076
136	0x3a4695aa	0.0007575402
137	0x3943c037	0.00018668255
138	0x3a856ff0	0.0010180455
139	0xbc171701	-0.009221793
140	0xbbddeb7a	-0.0067724558
141	0x3b164c25	0.002293357
142	0x3c245f86	0.01003254
143	0x3c64fedb	0.013976778
144	0x3c3c0c4f	0.011477544
145	0x3c1f091b	0.009706761
146	0xbc1c9354	-0.00955661
147	0xbb906710	-0.0044068173
148	0xbb8bcaf7	-0.0042661387
149	0x3bee6928	0.007275719
150	0xbb7eab25	-0.0038859334
151	0xbbe562ce	-0.007000304
152	0xbc452554	-0.0120328255
153	0xbb8fc840	-0.0043878853
154	0xbc3963dc	-0.011315312
155	0x3bfdf50b	0.0077501587
156	0xbc0a5eb5	-0.0084454315
157	0xbbec5539	-0.007212308
158	0xbc5e12b0	-0.01355426
159	0x3bb8c286	0.0056384234
160	0x3c2088db	0.009798254
161	0x3b23d8ac	0.0025000973
162	0x3c2f2c64	0.010691736
163	0x3c14f00e	0.009090437
164	0x3afb7af5	0.0019186424
165	0x3bdae62e	0.0066802716
166	0x3bf51899	0.007479739
167	0x3c0da580	0.008645415
168	0xbbc04787	-0.0058679017
169	0x3c0df456	0.008664211
170	0xbbd591d0	-0.0065176263
171	0xbc20da79	-0.009817713
172	0xbba5e7d2	-0.0050630355
173	0x3bd999c7	0.006640646
174	0x3bc5aa2e	0.00603225
175	0x3b587dde	0.0033034007
176	0x3c3b3857	0.011427007
177	0xbc0d1084	-0.008609895
178	0x3c08db04	0.008352999
179	0xbb61e2e5	-0.0034467515
180	0xbc230a59	-0.009951198
181	0x3be0a6ee	0.006855837
182	0x3c31ff3b	0.010864074
183	0x3c0c4f66	0.008563852
184	0xbbbd7ed4	-0.0057829414
185	0xbc0fd0e1	-0.008777828
186	0x3b969a51	0.0045960327
187	0xbbc5395c	-0.0060188007
188	0x3b8bca7e	0.0042660823
189	0xbc272c14	-0.01020338
190	0xbc07e4e6	-0.00829432
191	0x3bbef89a	0.0058279755
192	0x3c22780b	0.009916316
193	0x3bba031e	0.005676641
194	0xbba781c7	-0.005111906
195	0xbbe0b7c6	-0.006857845
196	0x3c16258a	0.009164223
197	0x3b87e83f	0.004147559
198	0xbb01bf06	-0.0019797697
199	0xbbb5b64e	-0.005545414
200	0x3bf91ef0	0.007602565
201	0xbbfbad3a	-0.0076805623
202	0xbbc21b4f	-0.0059236656
203	0x3c01916e	0.007908208
204	0x3acd29b5	0.0015652688
205	0xba1b93fe	-0.00059348333
206	0xbb98b4ac	-0.0046602096
207	0x3c22051b	0.009888913
208	0xbba47dec	-0.005019894
209	0xbbacdcd7	-0.0052753496
210	0x3ba68e23	0.005082862
211	0x37575e58	1.2836965e-05
212	0xbc024883	-0.007951858
213	0x3bb17ef0	0.0054167435
214	0xbbad8519	-0.0052954075
215	0x3c101dbc	0.008796152
216	0x3c0b4b1d	0.008501795
217	0xba126fe4	-0.0005586131
218	0xbc0760fc	-0.008262869
219	0x3b91490b	0.004433756
220	0xbc2ca029	-0.010536232
221	0x3bd77167	0.006574798
222	0xbbac3e1c	-0.0052564275
223	0xbbf90851	-0.0075998683
224	0xbbd97418	-0.006636154
225	0xbc092ad0	-0.008372024
226	0xbc1cf853	-0.0095806895
227	0xb9c4447d	-0.0003743506
228	0x3c3aa8c5	0.011392777
229	0xba9c9fb7	-0.0011949454
230	0x3ba6cfea	0.0050907033
231	0x39b03636	0.00033609726
232	0xbb992e95	-0.0046747425
233	0xbb061d10	-0.00204641
234	0xbc37dc54	-0.011221964
235	0xbb4d8c7f	-0.003136426
236	0xbc016329	-0.007897177
237	0x3bccb793	0.0062474697
238	0xbbac116e	-0.005251101
239	0xbb95001e	-0.004547133
240	0xbaf4ce55	-0.0018677214
241	0xbb969608	-0.004595522
242	0x3c114023	0.008865389
243	0xbbaa65a3	-0.0052001043
244	0x3c1b3e80	0.00947535
245	0x3c1ea9fd	0.009684083
246	0xba87187d	-0.0010306981
247	0x3c248c7f	0.0100432625
248	0x3b789395	0.0037929763
249	0x3c1d7e93	0.009612697
250	0xbbc91d95	-0.0061375597
251	0x3bae5a93	0.005320856
252	0xb9f36c7c	-0.000464294
253	0xbc0d6aa0	-0.008631378
254	0x3c61af3e	0.013774691
255	0xbc474dae	-0.012164516

transformer.h.0.mlp.c_fc.weight f4 [32, 512]
0	0xbb10d56a	-0.002209986
1	0xbc6bd8ac	-0.01439492
2	0xbbe072ca	-0.0068496214
3	0x3c247e6d	0.010039908
4	0x3caab960	0.020840347
5	0x3caaf69f	0.020869551
6	0xbd349854	-0.044090584
7	0x3bdfca53	0.006829539
8	0xbcac45d9	-0.0210294
9	0xbbb76af0	-0.0055974647
10	0x3bdd5bac	0.006755313
11	0x3ce08c74	0.027410723
12	0xbc8d04ab	-0.01721414
13	0xbca1f59f	-0.019770442
14	0xbc7bd1da	-0.015369857
15	0x3a228c44	0.0006200711
16	0x3d1b444e	0.037906937
17	0xbb5a1b51	-0.0033280442
18	0xb8aef785	-8.343071e-05
19	0xbb834b1d	-0.004006757
20	0x3c3e72ce	0.011624051
21	0xbd2103cb	-0.039310258
22	0x3c2e6a52	0.010645466
23	0xbcc39047	-0.023872508
24	0x3be31cb8	0.006930914
25	0xbc22669d	-0.00991216
26	0x3cb47c1c	0.022031836
27	0x3c2a8c98	0.010409497
28	0x3d03ddcd	0.032193948
29	0xbd19e0a7	-0.03756776
30	0xbb341cb5	-0.002748293
31	0x3cd05752	0.025432263
32	0xbcf27264	-0.029595561
33	0xbbb3909b	-0.005479885
34	0xbb9c34e7	-0.0047670486
35	0xbc98277d	-0.018573517
36	0xbc44566b	-0.011983494
37	0xbbfb1708	-0.0076626576
38	0xbb4e1e6d	-0.003145124
39	0x3c7bf34a	0.015377829
40	0xbc4eff37	-0.01263409
41	0xbd21c137	-0.039490905
42	0xbb74d1b7	-0.0037356445
43	0x3c3b58b6	0.011434725
44	0x3c56fcbe	0.013121782
45	0x3d1659d1	0.03670675
46	0xbc30f288	-0.010800011
47	0xbb574cb0	-0.0032852106
48	0x3c9f9aac	0.019482933
49	0xbc99043c	-0.018678777
50	0x3c386f9b	0.011257078
51	0xbc484f96	-0.012226006
52	0x3c9d7758	0.019221947
53	0x3cd2c91b	0.02573066
54	0x3d3034cc	0.0430191
55	0xbc4f2b50	-0.012644604
56	0x3c0249c6	0.007952159
57	0xbbc336c5	-0.005957457
58	0xbb861d70	-0.0040928647
59	0x3c06b841	0.0082226405
60	0x3bd4e76b	0.0064973137
61	0x3b8b9f0a	0.0042609023
62	0xbbb974e1	-0.005659685
63	0xbd31e177	-0.04342791
64	0x3c468591	0.012116806
65	0x3cd668c0	0.026172996
66	0xbc553ed0	-0.013015464
67	0xb99c6490	-0.00029829564
68	0xbcc5a52a	-0.024126608
69	0xbd0c2a48	-0.03422001
70	0x3c16b14d	0.009197545
71	0x3d36185d	0.04445683
72	0xbd349f1b	-0.044097047
73	0xbd07ac4f	-0.03312331
74	0xbd1ef435	-0.038807113
75	0xbccdabd6	-0.025106352
76	0xbac666b5	-0.001513681
77	0xbb773354	-0.0037719803
78	0x3b41f547	0.002959566
79	0xbb956a01	-0.004559756
80	0xbc61c3ae	-0.013779564
81	0xbd1907ff	-0.03736114
82	0x3cacc286	0.02108885
83	0xbc9371d3	-0.017998612
84	0xbbd56d54	-0.006513277
85	0x3ce65fb8	0.028121814
86	0x3c82b8a4	0.015957184
87	0xbc095c28	-0.008383788
88	0x3c84303c	0.016136281
89	0xbc18c3cd	-0.009324026
90	0x3c9b3178	0.018944487
91	0x3c85d409	0.016336458
92	0x3c951b91	0.018201621
93	0xbd2d440e	-0.04230123
94	0x3cb27b5e	0.021787342
95	0x3be9d967	0.007136512
96	0xbce85751	-0.028361948
97	0x3cdbdccb	0.02683868
98	0xbc6a49f0	-0.014299855
99	0x3d03dcdd	0.032193054
100	0xbc35e056	-0.011100849
101	0xbb12caaf	-0.002239864
102	0x3cd8521e	0.026406344
103	0xbbb457e8	-0.0055036433
104	0x3c5f1932	0.013616847
105	0xbbebd46c	-0.0071969535
106	0xbd3e785a	-0.046501495
107	0x3b425959	0.0029655306
108	0xbcff6bdf	-0.031179367
109	0x3cfaf9fa	0.030636776
110	0x3bbad98c	0.005702203
111	0x3d0fb9a2	0.035089143
112	0x3ba62c24	0.00507118
113	0x3b27829f	0.0025560034
114	0x3c700461	0.0146494815
115	0xbbac5033	-0.005258584
116	0x3bd22120	0.00641264
117	0xbaa803aa	-0.0012818475
118	0x3b754b8e	0.0037429067
119	0xbd1cd68a	-0.038290538
120	0xbca7ff43	-0.02050746
121	0x3bdf5386	0.0068153767
122	0x3c1cc2ac	0.009567898
123	0xbc4592a5	-0.012058889
124	0xbc3e3f51	-0.0116117755
125	0xbcb750ff	-0.02237749
126	0x3d11dfad	0.035613704
127	0x3d29f827	0.041496422
128	0xbc5be4a1	-0.013421209
129	0x3c5be66c	0.013421636
130	0xbb2e5316	-0.0026599816
131	0xbb16a2d8	-0.0022985246
132	0xbce1019e	-0.027466591
133	0xbc08f3aa	-0.008358875
134	0xbcf32cea	-0.029684503
135	0x3c821a0f	0.015881566
136	0xbcb7d6bd	-0.022441262
137	0xbc86699a	-0.016407777
138	0x3c8501b2	0.01623616
139	0xbc929111	-0.017891439
140	0x3c8d0083	0.017212158
141	0x3c821874	0.0158808
142	0x3cf22b4c	0.029561661
143	0x3cbdc429	0.023164826
144	0x3bb3f693	0.0054920404
145	0x3c853d6d	0.016264642
146	0xbc14fba7	-0.009093202
147	0x397f43f2	0.00024344007
148	0x3cc5c282	0.0241406
149	0xb9f74950	-0.00047166133
150	0xbb2edb95	-0.0026681174
151	0x3badf996	0.005309294
152	0x3c817286	0.01580168
153	0xbc87504e	-0.016517784
154	0x3c5eedde	0.013606517
155	0x3be1a8b0	0.006886564
156	0x3c81202e	0.015762415
157	0x3c49f655	0.012326797
158	0x3caf34e2	0.021387521
159	0x3ce38d50	0.027777344
160	0xbd87a734	-0.06623688
161	0x392795f2	0.0001598222
162	0xbcb514f3	-0.022104716
163	0x3cf92513	0.030413186
164	0xbcc9f362	-0.024652187
165	0x3b15e265	0.0022870537
166	0xbcef9592	-0.029246125
167	0x3c8080e8	0.015686467
168	0x3cfbae22	0.030722681
169	0x3c9867db	0.01860421
170	0xbb63badf	-0.0034748835
171	0x3c3d340e	0.011548055
172	0x3d29dcd5	0.041470367
173	0x3c8f8b2a	0.017522413
174	0x3cb4c061	0.02206439
175	0xbcb58fec	-0.022163354
176	0xbb93e46e	-0.004513315
177	0xbba2dc4c	-0.004970109
178	0xbc48bd22	-0.012252124
179	0x3d62a9cb	0.05533771
180	0x3c952897	0.018207831
181	0xbaaff660	-0.0013424866
182	0xbc934c06	-0.017980587
183	0xbcf5cf78	-0.030006155
184	0xbb7855e3	-0.003789299
185	0x3cc061c1	0.023484113
186	0xbcf4fbe4	-0.029905267
187	0x3d0102ff	0.031496998
188	0x3c0a5241	0.008442462
189	0xbd056341	-0.03256536
190	0xbb851bdd	-0.0040621595
191	0x3bd29de6	0.0064275144
192	0xbd0dcf6f	-0.034621652
193	0xbcf83a55	-0.030301252
194	0x3c17fe9d	0.009277013
195	0xbcfde836	-0.030994516
196	0xbcaa7c34	-0.020811178
197	0x3ce4891a	0.027897406
198	0x3c0707b1	0.00824158
199	0xbc394fd7	-0.011310539
200	0x3c50b3bd	0.012738165
201	0x3cb67878	0.02227424
202	0xbb12797b	-0.002235024
203	0xbb36a561	-0.002786957
204	0x3c4b728c	0.012417447
205	0xbbfe6bd8	-0.007764321
206	0xbc9f1421	-0.019418778
207	0x3cf879eb	0.030331573
208	0xbc73ed83	-0.01488817
209	0x3d04163a	0.03224776
210	0xbad5faa7	-0.001632531
211	0xbc171416	-0.009221097
212	0x3a3c1edf	0.0007176231
213	0xbd51d6e8	-0.05123034
214	0x3c5a6cce	0.013331605
215	0x3ca1e451	0.01976219
216	0x3b8a2f43	0.00421706
217	0xbc58748e	-0.013211383
218	0xbc8a27ee	-0.016864743
219	0xbb6d0d26	-0.0036171167
220	0x3cacfa56	0.021115463
221	0xbb9dbd33	-0.004813814
222	0xbb9059f8	-0.0044052564
223	0xbc9fa31c	-0.019486956
224	0x3d0038a0	0.031304
225	0x3c7e2e6e	0.015513999
226	0x3b810302	0.003937126
227	0x3cfcbd7f	0.030852078
228	0xbc84338f	-0.016137866
229	0xbc781f09	-0.015144118
230	0xbb78af6c	-0.0037946356
231	0x3b2132e2	0.002459698
232	0xbd1f627a	-0.038912274
233	0x3bf581a2	0.00749226
234	0xbcb3f7b1	-0.021968694
235	0xbc47d8b3	-0.012197661
236	0x3c4d058d	0.01251353
237	0x3c9c5a54	0.01908604
238	0xbbb8f582	-0.005644501
239	0x3c0df5aa	0.008664528
240	0x3c1f3a0e	0.009718431
241	0x3c85ecc5	0.016348252
242	0xbd1ae13e	-0.037812464
243	0x3be53c03	0.0069956793
244	0xbc636c7d	-0.013880846
245	0xbc7066ba	-0.014672929
246	0x3d05a0f6	0.032624207
247	0xbb205c9f	-0.002446927
248	0x3c26aa88	0.010172494
249	0x3cd137d5	0.025539318
250	0x3ca82948	0.020527497
251	0x3b4594b9	0.003014846
252	0x3c49de89	0.012321123
253	0xbc41f831	-0.011838959
254	0xbb5f06f6	-0.0034031249
255	0x3b008c70	0.0019614957

transformer.h.0.mlp.c_proj.bias f4 [32]
0	0xb89c542e	-7.454339e-05
1	0xbb7790b9	-0.003777547
2	0xba007bf5	-0.00049012835
3	0x3bc09661	0.0058773016
4	0xbba871cf	-0.00514052
5	0x3b325632	0.002721202
6	0xbc28ef9e	-0.010311035
7	0xbb4763c5	-0.0030424458
8	0xbbca46c0	-0.006172985
9	0xbb90f86c	-0.0044241454
10	0xbb3e39fe	-0.0029026265
11	0x3bd7e73f	0.006588846
12	0xbbe83c82	-0.007087291
13	0xbb9bfd1b	-0.004760397
14	0x3a747f3a	0.00093268196
15	0x3be59219	0.0070059416
16	0x3bc780bf	0.006088346
17	0x3bb70860	0.005585715
18	0x3b1eaab2	0.002421063
19	0x3be4f8d7	0.006987672
20	0x3c356491	0.01107134
21	0xbbdb6f49	-0.006696616
22	0x3bf7af32	0.0075587267
23	0x3c39ee4c	0.011348318
24	0xbb58b7eb	-0.0033068608
25	0xbbf8009e	-0.007568433
26	0xbc3a277a	-0.011361951
27	0x3bbcfc32	0.0057673687
28	0x3ac22df0	0.0014814716
29	0x3c1cb487	0.009564525
30	0xbc0c4365	-0.00856099
31	0xbbccb46b	-0.0062470934

transformer.h.0.mlp.c_proj.weight f4 [512, 32]
0	0xbd094665	-0.0335144
1	0xbb8cb95a	-0.0042945566
2	0xbc4bc9f9	-0.012438291
3	0x3912bd68	0.00013994204
4	0x3c4a6c85	0.012354975
5	0xba8ad09c	-0.0010590735
6	0xbc867b8a	-0.01641633
7	0x3cbc5fe1	0.022994937
8	0xb9222940	-0.00015464891
9	0xbbe0f693	-0.0068653314
10	0xbc82c3f3	-0.015962576
11	0xba9738d4	-0.0011537322
12	0xbcb39e0d	-0.02192595
13	0x3cd186d9	0.025576996
14	0x3d19efce	0.03758221
15	0xbbfdd354	-0.0077461395
16	0x3c2a747e	0.01040375
17	0xbc2e1da5	-0.010627185
18	0x3c0e582b	0.008688013
19	0xbc5e40d3	-0.01356526
20	0xbbcb60ad	-0.006206593
21	0x3a26352a	0.00063403195
22	0x39bdb8d9	0.0003618661
23	0xbcb87dff	-0.022521017
24	0xbc0d52c6	-0.008625692
25	0xbcce530d	-0.025186086
26	0x3c0f4da5	0.008746539
27	0x3b032b26	0.0020014732
28	0x3c1c3372	0.00953375
29	0x3b7ec592	0.0038875085
30	0x3c5982ba	0.013275797
31	0xbba98c62	-0.0051742056
32	0x3bb1c791	0.0054254015
33	0xba85e762	-0.0010216052
34	0xbc90e86d	-0.017688954
35	0x3c9882f3	0.018617129
36	0xbb14e75e	-0.0022720913
37	0xbb545c50	-0.0032403655
38	0x3bed36e4	0.0072392095
39	0x3b8ac06f	0.0042343657
40	0xbc1b3e82	-0.009475352
41	0xbc7ca1f8	-0.015419476
42	0xbc6d2ed1	-0.014476494
43	0xbc077c97	-0.008269451
44	0xbc8342eb	-0.01602312
45	0xbc5ebbb5	-0.0135945575
46	0x3d153b99	0.03643379
47	0xbba25454	-0.0049539004
48	0xbbfbf0af	-0.007688604
49	0xbc71b87a	-0.014753455
50	0x3c937aca	0.018002886
51	0xbcb0275a	-0.02150314
52	0xbc3f6e1b	-0.011683966
53	0xbcce14e4	-0.025156446
54	0x3ba5b2bb	0.0050567067
55	0x3bacded2	0.0052755857
56	0x3c9fe7e6	0.019519757
57	0x3cb8fe36	0.022582155
58	0xbc0e43c8	-0.0086831525
59	0xbb9817d1	-0.004641511
60	0xbd12593c	-0.03572963
61	0x3c8f5bfa	0.017499913
62	0x3c865c8d	0.016401554
63	0xbc9332d5	-0.017968575
64	0x3c107e27	0.00881914
65	0xbb4ab958	-0.0030933227
66	0xbb97778d	-0.004622406
67	0x3c9abab1	0.01888785
68	0xbce08317	-0.027406259
69	0x3b36833b	0.0027849216
70	0xbb7bdef0	-0.0038432442
71	0xbc418687	-0.011811859
72	0xbc777514	-0.015103597
73	0xbb2d1d9f	-0.002641536
74	0xbbcd3cb0	-0.006263338
75	0x3cfaa945	0.030598292
76	0xbd008166	-0.031373404
77	0xbcb273c6	-0.02178372
78	0xbc083ebc	-0.008315738
79	0x3c3a3964	0.011366222
80	0x3c9eb692	0.019374166
81	0x3cd55881	0.026043179
82	0x39a5ae15	0.00031600954
83	0x3c777cd6	0.015105447
84	0x3c9b99ce	0.018994238
85	0x3c1ffd68	0.009765007
86	0x3cd139c2	0.025540236
87	0x3c1b4db0	0.009478971
88	0xbce69097	-0.028145118
89	0xbc5d562d	-0.013509315
90	0xbc516c77	-0.012782208
91	0xbd186794	-0.037208155
92	0x3c245ba1	0.010031612
93	0xbba62ac6	-0.005071017
94	0xbd0c6047	-0.034271505
95	0xbc3f5b60	-0.0116795
96	0x3c06aa9a	0.0082193855
97	0x3cb813bb	0.022470346
98	0x3bbcff2a	0.0057677226
99	0xbb717f65	-0.0036849615
100	0xbc579e29	-0.013160267
101	0x3b83b0e3	0.0040188893
102	0xbc93c3eb	-0.018037757
103	0xba25e395	-0.0006328163
104	0x3bbd8ef1	0.005784862
105	0x3c46867d	0.012117025
106	0xbb84b2de	-0.004049643
107	0xbc5af9d0	-0.013365224
108	0xbd208e84	-0.039198413
109	0x3b2630f0	0.002535876
110	0xbb4a319f	-0.003085233
111	0xbc1929e7	-0.009348369
112	0xbc489f0a	-0.012244949
113	0xba0a227e	-0.0005269422
114	0xbb292d58	-0.002581438
115	0x3ae73d09	0.0017642091
116	0x3c22a429	0.009926834
117	0xbcc4a088	-0.024002329
118	0xbc21be23	-0.009871992
119	0x3ccc19f9	0.024914728
120	0xbc84b38a	-0.016198892
121	0xbb4e5ec3	-0.0031489588
122	0xbabfa007	-0.0014619835
123	0x3c88a98d	0.01668241
124	0x3c8d8509	0.01727535
125	0xbc3382f7	-0.010956517
126	0xbb215d97	-0.0024622434
127	0xbc8106e2	-0.015750352
128	0xbb633090	-0.0034666397
129	0xbd0099d6	-0.03139671
130	0xbc01ac32	-0.00791459
131	0x3a6a86c6	0.00089464744
132	0xbcfe0f17	-0.031013055
133	0xbb4e97fe	-0.00315237
134	0x3ad2a183	0.0016069863
135	0xbc6bc818	-0.014390968
136	0x3c98fd47	0.01867546
137	0xbb98b481	-0.0046601896
138	0xbc7328a7	-0.014841235
139	0x3c1a4b11	0.009417311
140	0xbb5967a5	-0.003317335
141	0x3c8b50d0	0.017006308
142	0x3bd2dfc5	0.006435367
143	0x3c4677c2	0.012113513
144	0xbb30e398	-0.0026991125
145	0x3d0c0764	0.034186736
146	0x3cc024ef	0.023455111
147	0xbb7a91b7	-0.0038233825
148	0x3c2aa810	0.010416046
149	0xbb9ba245	-0.0047495686
150	0xbb1a1298	-0.0023509618
151	0xbb8c381e	-0.0042791506
152	0xbd09e64f	-0.033666905
153	0x3b39f1ed	0.0028372959
154	0x3bbf1fd8	0.0058326535
155	0x3c3c54ef	0.011494859
156	0xbc57cbe0	-0.013171166
157	0xba2d06d0	-0.00066004414
158	0x3b717931	0.0036845917
159	0x3c35e291	0.011101381
160	0xbc852a9a	-0.016255666
161	0x3c2241c7	0.009903378
162	0x3b8f9f69	0.004383017
163	0xbc3af690	-0.011411324
164	0x3aa61cfe	0.0012673435
165	0xbb71ed02	-0.003691495
166	0x3d1b5029	0.037918244
167	0x3d29e404	0.04147722
168	0x3c86a91f	0.016438065
169	0xbb934270	-0.004494004
170	0x3c0d3513	0.008618611
171	0x3c34861a	0.0110183
172	0x3cf40884	0.029789217
173	0x3ccdb4c4	0.02511061
174	0x3b9f4b3d	0.004861264
175	0x3c609d3e	0.013709364
176	0xbc27bf07	-0.010238416
177	0xbc69c3c4	-0.014267866
178	0x3c271451	0.010197715
179	0xbba6fd9a	-0.0050961496
180	0xbbc70418	-0.006073486
181	0x3c1ee96b	0.009699206
182	0xbc816cc1	-0.015798928
183	0xbd0b664d	-0.03403311
184	0xbc72ddb3	-0.014823365
185	0x3c2dbc84	0.010604028
186	0x3b88c325	0.0041736537
187	0xbc607611	-0.013700024
188	0xbcbb2ded	-0.022849048
189	0x3b9dbefb	0.0048140264
190	0xbbc0a833	-0.005879426
191	0x3bc04ee6	0.0058687804
192	0xbbcc58a0	-0.006236151
193	0xbc487510	-0.012234941
194	0x3b0228d8	0.001986077
195	0x3c5e0d37	0.013552955
196	0x3c507a64	0.012724493
197	0xbc0f2673	-0.008737194
198	0x3a2b08a6	0.0006524421
199	0x3c6946d7	0.014238081
200	0xbc1501b6	-0.009094646
201	0xbbf6a182	-0.0075265775
202	0xbbb57b2d	-0.0055383653
203	0x3c133a5c	0.008986082
204	0xbbc1711a	-0.0059033753
205	0x3c4e5fe7	0.012596107
206	0x3c5f2dd2	0.013621764
207	0x3c8fef19	0.017570065
208	0xbabec1c7	-0.00145536
209	0xba1c3b5a	-0.0005959772
210	0x3b9c8329	0.0047763777
211	0xbc4e06ec	-0.0125748925
212	0xbba17762	-0.0049275616
213	0x3cbd227b	0.02308773
214	0xbc32656e	-0.010888441
215	0xbc33232c	-0.010933679
216	0x3c6d0321	0.014466078
217	0xbb390682	-0.0028232639
218	0xbc4f34f6	-0.012646904
219	0xba9fe1ce	-0.0012198032
220	0x3ba95a2e	0.005168221
221	0x377f61a5	1.5221919e-05
222	0xbbd970a8	-0.006635744
223	0xbba12a80	-0.0049183965
224	0x3caf80bc	0.02142369
225	0xbb4c5ec2	-0.003118441
226	0xbc8cdfa3	-0.017196482
227	0xbc938db1	-0.0180119
228	0xbad568b0	-0.001628181
229	0x3b86b20e	0.0041105812
230	0x3c5fedbe	0.013667522
231	0xb90cd3b1	-0.00013430302
232	0x3bba92fe	0.0056937924
233	0x3b42e4ae	0.0029738354
234	0x3a95e889	0.0011437099
235	0xba3ed6f7	-0.0007279957
236	0x3c4d90d0	0.012546733
237	0x3cd5c1ac	0.026093327
238	0x3b6a1017	0.0035715157
239	0xbc29d8aa	-0.010366598
240	0xb7e08613	-2.6765314e-05
241	0xbc585820	-0.013204604
242	0x3c012466	0.007882213
243	0xb9febe24	-0.0004858832
244	0x3c786a2e	0.015162034
245	0x3b882026	0.004154223
246	0x3c5adff7	0.013359061
247	0x3c23d45e	0.009999363
248	0xbcf24084	-0.02957178
249	0xbc69ab48	-0.014262028
250	0x3c9729fb	0.018452635
251	0x3c665d82	0.01406038
252	0x3c7b8e0c	0.015353691
253	0x3c1e4181	0.009659172
254	0xbc69a9b7	-0.014261655
255	0xbc8a7e3e	-0.0169059

transformer.ln_f.bias f4 [32]
0	0x3cf02d45	0.029318461
1	0x3c07a46b	0.008278946
2	0x3cd3d451	0.025858076
3	0xbc71cee1	-0.014758796
4	0xbd124cf5	-0.035717923
5	0xbcc8f4b1	-0.02453074
6	0xbd192a9f	-0.037394162
7	0xbd09712a	-0.033555187
8	0xbd0fd039	-0.035110686
9	0xbb288a09	-0.002571704
10	0x3cfbcc6e	0.030737128
11	0x3bb4cedd	0.005517824
12	0xbd1df1db	-0.03856073
13	0xbcf93da8	-0.030424908
14	0xbd08a30b	-0.033358615
15	0x3d1de8e7	0.03855219
16	0x3d037910	0.032097876
17	0x3d047460	0.032337546
18	0xbd023156	-0.03178533
19	0x3d13d5f0	0.0360927
20	0x3d25d957	0.040490475
21	0xbd033545	-0.032033224
22	0x3cee43a6	0.029084992
23	0x3d105421	0.03523648
24	0xbd0fd440	-0.035114527
25	0xbd158371	-0.036502305
26	0xbd1b96da	-0.03798566
27	0x3cf7bc98	0.030241296
28	0xbce68774	-0.028140761
29	0x3d11dfd2	0.035613842
30	0xbd0f09b8	-0.034921378
31	0xba097aa0	-0.0005244408

transformer.ln_f.weight f4 [32]
0	0x3f8548dd	1.0412861
1	0x3f8504cc	1.0392089
2	0x3f8528a9	1.0403033
3	0x3f853077	1.0405415
4	0x3f853a10	1.0408344
5	0x3f8487d5	1.0353953
6	0x3f844139	1.0332404
7	0x3f855c48	1.0418787
8	0x3f8528a4	1.0403028
9	0x3f847d6c	1.0350776
10	0x3f8586c7	1.0431756
11	0x3f84ab20	1.0364723
12	0x3f84f535	1.0387331
13	0x3f84f9d5	1.0388743
14	0x3f853e37	1.0409611
15	0x3f84bacd	1.0369507
16	0x3f851789	1.0397807
17	0x3f82d160	1.0220146
18	0x3f84d5a5	1.0377699
19	0x3f853ef3	1.0409836
20	0x3f858270	1.0430431
21	0x3f852ccd	1.0404297
22	0x3f85320f	1.0405902
23	0x3f84f24f	1.0386447
24	0x3f858160	1.0430107
25	0x3f84f567	1.0387391
26	0x3f83d95c	1.0300708
27	0x3f84ffce	1.0390565
28	0x3f84f34f	1.0386752
29	0x3f83bfec	1.0292945
30	0x3f856d56	1.0423992
31	0x3f84d111	1.0376302
